{"format": "graph-model", "generatedBy": "2.15.1", "convertedBy": "TensorFlow.js Converter v4.17.0", "signature": {"inputs": {"x": {"name": "x:0", "dtype": "DT_FLOAT", "tensorShape": {"dim": [{"size": "-1"}, {"size": "3"}, {"size": "-1"}, {"size": "-1"}]}}}, "outputs": {"sigmoid_0.tmp_0": {"name": "Identity:0", "dtype": "DT_FLOAT", "tensorShape": {"dim": [{"size": "-1"}, {"size": "1"}, {"size": "-1"}, {"size": "-1"}]}}}}, "modelTopology": {"node": [{"name": "PartitionedCall/Slice_1/begin", "op": "Const", "attr": {"value": {"tensor": {"dtype": "DT_INT32", "tensorShape": {"dim": [{"size": "4"}]}}}, "dtype": {"type": "DT_INT32"}}}, {"name": "PartitionedCall/strided_slice_22/stack", "op": "Const", "attr": {"value": {"tensor": {"dtype": "DT_INT32", "tensorShape": {"dim": [{"size": "1"}]}}}, "dtype": {"type": "DT_INT32"}}}, {"name": "PartitionedCall/strided_slice_22/stack_1", "op": "Const", "attr": {"value": {"tensor": {"dtype": "DT_INT32", "tensorShape": {"dim": [{"size": "1"}]}}}, "dtype": {"type": "DT_INT32"}}}, {"name": "PartitionedCall/strided_slice_22/stack_2", "op": "Const", "attr": {"value": {"tensor": {"dtype": "DT_INT32", "tensorShape": {"dim": [{"size": "1"}]}}}, "dtype": {"type": "DT_INT32"}}}, {"name": "PartitionedCall/strided_slice_23/stack", "op": "Const", "attr": {"value": {"tensor": {"dtype": "DT_INT32", "tensorShape": {"dim": [{"size": "1"}]}}}, "dtype": {"type": "DT_INT32"}}}, {"name": "PartitionedCall/strided_slice_23/stack_1", "op": "Const", "attr": {"value": {"tensor": {"dtype": "DT_INT32", "tensorShape": {"dim": [{"size": "1"}]}}}, "dtype": {"type": "DT_INT32"}}}, {"name": "PartitionedCall/strided_slice_23/stack_2", "op": "Const", "attr": {"value": {"tensor": {"dtype": "DT_INT32", "tensorShape": {"dim": [{"size": "1"}]}}}, "dtype": {"type": "DT_INT32"}}}, {"name": "PartitionedCall/strided_slice_24/stack", "op": "Const", "attr": {"value": {"tensor": {"dtype": "DT_INT32", "tensorShape": {"dim": [{"size": "1"}]}}}, "dtype": {"type": "DT_INT32"}}}, {"name": "PartitionedCall/strided_slice_24/stack_1", "op": "Const", "attr": {"value": {"tensor": {"dtype": "DT_INT32", "tensorShape": {"dim": [{"size": "1"}]}}}, "dtype": {"type": "DT_INT32"}}}, {"name": "PartitionedCall/strided_slice_24/stack_2", "op": "Const", "attr": {"value": {"tensor": {"dtype": "DT_INT32", "tensorShape": {"dim": [{"size": "1"}]}}}, "dtype": {"type": "DT_INT32"}}}, {"name": "PartitionedCall/strided_slice_21/stack", "op": "Const", "attr": {"value": {"tensor": {"dtype": "DT_INT32", "tensorShape": {"dim": [{"size": "1"}]}}}, "dtype": {"type": "DT_INT32"}}}, {"name": "PartitionedCall/strided_slice_21/stack_1", "op": "Const", "attr": {"value": {"tensor": {"dtype": "DT_INT32", "tensorShape": {"dim": [{"size": "1"}]}}}, "dtype": {"type": "DT_INT32"}}}, {"name": "PartitionedCall/strided_slice_21/stack_2", "op": "Const", "attr": {"value": {"tensor": {"dtype": "DT_INT32", "tensorShape": {"dim": [{"size": "1"}]}}}, "dtype": {"type": "DT_INT32"}}}, {"name": "PartitionedCall/mul_56/x", "op": "Const", "attr": {"value": {"tensor": {"dtype": "DT_INT32", "tensorShape": {}}}, "dtype": {"type": "DT_INT32"}}}, {"name": "PartitionedCall/strided_slice_19/stack", "op": "Const", "attr": {"value": {"tensor": {"dtype": "DT_INT32", "tensorShape": {"dim": [{"size": "1"}]}}}, "dtype": {"type": "DT_INT32"}}}, {"name": "PartitionedCall/strided_slice_19/stack_1", "op": "Const", "attr": {"value": {"tensor": {"dtype": "DT_INT32", "tensorShape": {"dim": [{"size": "1"}]}}}, "dtype": {"type": "DT_INT32"}}}, {"name": "PartitionedCall/strided_slice_19/stack_2", "op": "Const", "attr": {"value": {"tensor": {"dtype": "DT_INT32", "tensorShape": {"dim": [{"size": "1"}]}}}, "dtype": {"type": "DT_INT32"}}}, {"name": "PartitionedCall/sub_14/y", "op": "Const", "attr": {"value": {"tensor": {"dtype": "DT_INT32", "tensorShape": {}}}, "dtype": {"type": "DT_INT32"}}}, {"name": "PartitionedCall/add_48", "op": "Const", "attr": {"value": {"tensor": {"dtype": "DT_INT32", "tensorShape": {}}}, "dtype": {"type": "DT_INT32"}}}, {"name": "PartitionedCall/mul_57/x", "op": "Const", "attr": {"value": {"tensor": {"dtype": "DT_INT32", "tensorShape": {}}}, "dtype": {"type": "DT_INT32"}}}, {"name": "PartitionedCall/strided_slice_20/stack", "op": "Const", "attr": {"value": {"tensor": {"dtype": "DT_INT32", "tensorShape": {"dim": [{"size": "1"}]}}}, "dtype": {"type": "DT_INT32"}}}, {"name": "PartitionedCall/strided_slice_20/stack_1", "op": "Const", "attr": {"value": {"tensor": {"dtype": "DT_INT32", "tensorShape": {"dim": [{"size": "1"}]}}}, "dtype": {"type": "DT_INT32"}}}, {"name": "PartitionedCall/strided_slice_20/stack_2", "op": "Const", "attr": {"value": {"tensor": {"dtype": "DT_INT32", "tensorShape": {"dim": [{"size": "1"}]}}}, "dtype": {"type": "DT_INT32"}}}, {"name": "PartitionedCall/sub_15/y", "op": "Const", "attr": {"value": {"tensor": {"dtype": "DT_INT32", "tensorShape": {}}}, "dtype": {"type": "DT_INT32"}}}, {"name": "PartitionedCall/add_50", "op": "Const", "attr": {"value": {"tensor": {"dtype": "DT_INT32", "tensorShape": {}}}, "dtype": {"type": "DT_INT32"}}}, {"name": "PartitionedCall/conv2d_transpose_1/input_sizes/3", "op": "Const", "attr": {"value": {"tensor": {"dtype": "DT_INT32", "tensorShape": {}}}, "dtype": {"type": "DT_INT32"}}}, {"name": "PartitionedCall/split_66", "op": "Const", "attr": {"value": {"tensor": {"dtype": "DT_FLOAT", "tensorShape": {"dim": [{"size": "2"}, {"size": "2"}, {"size": "1"}, {"size": "24"}]}}}, "dtype": {"type": "DT_FLOAT"}}}, {"name": "PartitionedCall/Slice/begin", "op": "Const", "attr": {"value": {"tensor": {"dtype": "DT_INT32", "tensorShape": {"dim": [{"size": "4"}]}}}, "dtype": {"type": "DT_INT32"}}}, {"name": "PartitionedCall/strided_slice_15/stack", "op": "Const", "attr": {"value": {"tensor": {"dtype": "DT_INT32", "tensorShape": {"dim": [{"size": "1"}]}}}, "dtype": {"type": "DT_INT32"}}}, {"name": "PartitionedCall/strided_slice_15/stack_1", "op": "Const", "attr": {"value": {"tensor": {"dtype": "DT_INT32", "tensorShape": {"dim": [{"size": "1"}]}}}, "dtype": {"type": "DT_INT32"}}}, {"name": "PartitionedCall/strided_slice_15/stack_2", "op": "Const", "attr": {"value": {"tensor": {"dtype": "DT_INT32", "tensorShape": {"dim": [{"size": "1"}]}}}, "dtype": {"type": "DT_INT32"}}}, {"name": "PartitionedCall/strided_slice_16/stack", "op": "Const", "attr": {"value": {"tensor": {"dtype": "DT_INT32", "tensorShape": {"dim": [{"size": "1"}]}}}, "dtype": {"type": "DT_INT32"}}}, {"name": "PartitionedCall/strided_slice_16/stack_1", "op": "Const", "attr": {"value": {"tensor": {"dtype": "DT_INT32", "tensorShape": {"dim": [{"size": "1"}]}}}, "dtype": {"type": "DT_INT32"}}}, {"name": "PartitionedCall/strided_slice_16/stack_2", "op": "Const", "attr": {"value": {"tensor": {"dtype": "DT_INT32", "tensorShape": {"dim": [{"size": "1"}]}}}, "dtype": {"type": "DT_INT32"}}}, {"name": "PartitionedCall/strided_slice_17/stack", "op": "Const", "attr": {"value": {"tensor": {"dtype": "DT_INT32", "tensorShape": {"dim": [{"size": "1"}]}}}, "dtype": {"type": "DT_INT32"}}}, {"name": "PartitionedCall/strided_slice_17/stack_1", "op": "Const", "attr": {"value": {"tensor": {"dtype": "DT_INT32", "tensorShape": {"dim": [{"size": "1"}]}}}, "dtype": {"type": "DT_INT32"}}}, {"name": "PartitionedCall/strided_slice_17/stack_2", "op": "Const", "attr": {"value": {"tensor": {"dtype": "DT_INT32", "tensorShape": {"dim": [{"size": "1"}]}}}, "dtype": {"type": "DT_INT32"}}}, {"name": "PartitionedCall/strided_slice_14/stack", "op": "Const", "attr": {"value": {"tensor": {"dtype": "DT_INT32", "tensorShape": {"dim": [{"size": "1"}]}}}, "dtype": {"type": "DT_INT32"}}}, {"name": "PartitionedCall/strided_slice_14/stack_1", "op": "Const", "attr": {"value": {"tensor": {"dtype": "DT_INT32", "tensorShape": {"dim": [{"size": "1"}]}}}, "dtype": {"type": "DT_INT32"}}}, {"name": "PartitionedCall/strided_slice_14/stack_2", "op": "Const", "attr": {"value": {"tensor": {"dtype": "DT_INT32", "tensorShape": {"dim": [{"size": "1"}]}}}, "dtype": {"type": "DT_INT32"}}}, {"name": "PartitionedCall/mul_54/x", "op": "Const", "attr": {"value": {"tensor": {"dtype": "DT_INT32", "tensorShape": {}}}, "dtype": {"type": "DT_INT32"}}}, {"name": "PartitionedCall/strided_slice_12/stack", "op": "Const", "attr": {"value": {"tensor": {"dtype": "DT_INT32", "tensorShape": {"dim": [{"size": "1"}]}}}, "dtype": {"type": "DT_INT32"}}}, {"name": "PartitionedCall/strided_slice_12/stack_1", "op": "Const", "attr": {"value": {"tensor": {"dtype": "DT_INT32", "tensorShape": {"dim": [{"size": "1"}]}}}, "dtype": {"type": "DT_INT32"}}}, {"name": "PartitionedCall/strided_slice_12/stack_2", "op": "Const", "attr": {"value": {"tensor": {"dtype": "DT_INT32", "tensorShape": {"dim": [{"size": "1"}]}}}, "dtype": {"type": "DT_INT32"}}}, {"name": "PartitionedCall/sub_8/y", "op": "Const", "attr": {"value": {"tensor": {"dtype": "DT_INT32", "tensorShape": {}}}, "dtype": {"type": "DT_INT32"}}}, {"name": "PartitionedCall/add_44", "op": "Const", "attr": {"value": {"tensor": {"dtype": "DT_INT32", "tensorShape": {}}}, "dtype": {"type": "DT_INT32"}}}, {"name": "PartitionedCall/mul_55/x", "op": "Const", "attr": {"value": {"tensor": {"dtype": "DT_INT32", "tensorShape": {}}}, "dtype": {"type": "DT_INT32"}}}, {"name": "PartitionedCall/strided_slice_13/stack", "op": "Const", "attr": {"value": {"tensor": {"dtype": "DT_INT32", "tensorShape": {"dim": [{"size": "1"}]}}}, "dtype": {"type": "DT_INT32"}}}, {"name": "PartitionedCall/strided_slice_13/stack_1", "op": "Const", "attr": {"value": {"tensor": {"dtype": "DT_INT32", "tensorShape": {"dim": [{"size": "1"}]}}}, "dtype": {"type": "DT_INT32"}}}, {"name": "PartitionedCall/strided_slice_13/stack_2", "op": "Const", "attr": {"value": {"tensor": {"dtype": "DT_INT32", "tensorShape": {"dim": [{"size": "1"}]}}}, "dtype": {"type": "DT_INT32"}}}, {"name": "PartitionedCall/sub_9/y", "op": "Const", "attr": {"value": {"tensor": {"dtype": "DT_INT32", "tensorShape": {}}}, "dtype": {"type": "DT_INT32"}}}, {"name": "PartitionedCall/add_46", "op": "Const", "attr": {"value": {"tensor": {"dtype": "DT_INT32", "tensorShape": {}}}, "dtype": {"type": "DT_INT32"}}}, {"name": "PartitionedCall/conv2d_transpose/input_sizes/3", "op": "Const", "attr": {"value": {"tensor": {"dtype": "DT_INT32", "tensorShape": {}}}, "dtype": {"type": "DT_INT32"}}}, {"name": "PartitionedCall/split_65", "op": "Const", "attr": {"value": {"tensor": {"dtype": "DT_FLOAT", "tensorShape": {"dim": [{"size": "2"}, {"size": "2"}, {"size": "24"}, {"size": "24"}]}}}, "dtype": {"type": "DT_FLOAT"}}}, {"name": "PartitionedCall/transpose_216/perm", "op": "Const", "attr": {"value": {"tensor": {"dtype": "DT_INT32", "tensorShape": {"dim": [{"size": "4"}]}}}, "dtype": {"type": "DT_INT32"}}}, {"name": "PartitionedCall/strided_slice_6", "op": "Const", "attr": {"value": {"tensor": {"dtype": "DT_FLOAT", "tensorShape": {"dim": [{"size": "2"}]}}}, "dtype": {"type": "DT_FLOAT"}}}, {"name": "PartitionedCall/Const_57", "op": "Const", "attr": {"value": {"tensor": {"dtype": "DT_INT32", "tensorShape": {"dim": [{"size": "4"}, {"size": "2"}]}}}, "dtype": {"type": "DT_INT32"}}}, {"name": "PartitionedCall/transpose_180/perm", "op": "Const", "attr": {"value": {"tensor": {"dtype": "DT_INT32", "tensorShape": {"dim": [{"size": "4"}]}}}, "dtype": {"type": "DT_INT32"}}}, {"name": "PartitionedCall/split_48", "op": "Const", "attr": {"value": {"tensor": {"dtype": "DT_FLOAT", "tensorShape": {"dim": [{"size": "3"}, {"size": "3"}, {"size": "96"}, {"size": "24"}]}}}, "dtype": {"type": "DT_FLOAT"}}}, {"name": "PartitionedCall/transpose_181/perm", "op": "Const", "attr": {"value": {"tensor": {"dtype": "DT_INT32", "tensorShape": {"dim": [{"size": "4"}]}}}, "dtype": {"type": "DT_INT32"}}}, {"name": "ConstantFolding/PartitionedCall/split_49-folded-1", "op": "Const", "attr": {"value": {"tensor": {"dtype": "DT_INT32", "tensorShape": {"dim": [{"size": "2"}]}}}, "dtype": {"type": "DT_INT32"}}}, {"name": "PartitionedCall/transpose_185/perm", "op": "Const", "attr": {"value": {"tensor": {"dtype": "DT_INT32", "tensorShape": {"dim": [{"size": "4"}]}}}, "dtype": {"type": "DT_INT32"}}}, {"name": "PartitionedCall/split_50", "op": "Const", "attr": {"value": {"tensor": {"dtype": "DT_FLOAT", "tensorShape": {"dim": [{"size": "1"}, {"size": "1"}, {"size": "24"}, {"size": "6"}]}}}, "dtype": {"type": "DT_FLOAT"}}}, {"name": "PartitionedCall/onnx_tf_prefix_sng_Constant_276", "op": "Const", "attr": {"value": {"tensor": {"dtype": "DT_FLOAT", "tensorShape": {"dim": [{"size": "6"}]}}}, "dtype": {"type": "DT_FLOAT"}}}, {"name": "PartitionedCall/transpose_186/perm", "op": "Const", "attr": {"value": {"tensor": {"dtype": "DT_INT32", "tensorShape": {"dim": [{"size": "4"}]}}}, "dtype": {"type": "DT_INT32"}}}, {"name": "PartitionedCall/transpose_193/perm", "op": "Const", "attr": {"value": {"tensor": {"dtype": "DT_INT32", "tensorShape": {"dim": [{"size": "4"}]}}}, "dtype": {"type": "DT_INT32"}}}, {"name": "PartitionedCall/split_53", "op": "Const", "attr": {"value": {"tensor": {"dtype": "DT_FLOAT", "tensorShape": {"dim": [{"size": "1"}, {"size": "1"}, {"size": "6"}, {"size": "24"}]}}}, "dtype": {"type": "DT_FLOAT"}}}, {"name": "PartitionedCall/onnx_tf_prefix_sng_Constant_279", "op": "Const", "attr": {"value": {"tensor": {"dtype": "DT_FLOAT", "tensorShape": {"dim": [{"size": "24"}]}}}, "dtype": {"type": "DT_FLOAT"}}}, {"name": "PartitionedCall/transpose_194/perm", "op": "Const", "attr": {"value": {"tensor": {"dtype": "DT_INT32", "tensorShape": {"dim": [{"size": "4"}]}}}, "dtype": {"type": "DT_INT32"}}}, {"name": "PartitionedCall/mul_47/y", "op": "Const", "attr": {"value": {"tensor": {"dtype": "DT_FLOAT", "tensorShape": {}}}, "dtype": {"type": "DT_FLOAT"}}}, {"name": "PartitionedCall/add_35/y", "op": "Const", "attr": {"value": {"tensor": {"dtype": "DT_FLOAT", "tensorShape": {}}}, "dtype": {"type": "DT_FLOAT"}}}, {"name": "PartitionedCall/clip_by_value_4/Minimum/y", "op": "Const", "attr": {"value": {"tensor": {"dtype": "DT_FLOAT", "tensorShape": {}}}, "dtype": {"type": "DT_FLOAT"}}}, {"name": "PartitionedCall/clip_by_value_4/y", "op": "Const", "attr": {"value": {"tensor": {"dtype": "DT_FLOAT", "tensorShape": {}}}, "dtype": {"type": "DT_FLOAT"}}}, {"name": "PartitionedCall/strided_slice_7/stack", "op": "Const", "attr": {"value": {"tensor": {"dtype": "DT_INT32", "tensorShape": {"dim": [{"size": "1"}]}}}, "dtype": {"type": "DT_INT32"}}}, {"name": "PartitionedCall/strided_slice_7/stack_1", "op": "Const", "attr": {"value": {"tensor": {"dtype": "DT_INT32", "tensorShape": {"dim": [{"size": "1"}]}}}, "dtype": {"type": "DT_INT32"}}}, {"name": "PartitionedCall/strided_slice_7/stack_2", "op": "Const", "attr": {"value": {"tensor": {"dtype": "DT_INT32", "tensorShape": {"dim": [{"size": "1"}]}}}, "dtype": {"type": "DT_INT32"}}}, {"name": "PartitionedCall/transpose_217/perm", "op": "Const", "attr": {"value": {"tensor": {"dtype": "DT_INT32", "tensorShape": {"dim": [{"size": "4"}]}}}, "dtype": {"type": "DT_INT32"}}}, {"name": "PartitionedCall/transpose_221/perm", "op": "Const", "attr": {"value": {"tensor": {"dtype": "DT_INT32", "tensorShape": {"dim": [{"size": "4"}]}}}, "dtype": {"type": "DT_INT32"}}}, {"name": "PartitionedCall/strided_slice_8", "op": "Const", "attr": {"value": {"tensor": {"dtype": "DT_FLOAT", "tensorShape": {"dim": [{"size": "2"}]}}}, "dtype": {"type": "DT_FLOAT"}}}, {"name": "PartitionedCall/Const_59", "op": "Const", "attr": {"value": {"tensor": {"dtype": "DT_INT32", "tensorShape": {"dim": [{"size": "4"}, {"size": "2"}]}}}, "dtype": {"type": "DT_INT32"}}}, {"name": "PartitionedCall/transpose_188/perm", "op": "Const", "attr": {"value": {"tensor": {"dtype": "DT_INT32", "tensorShape": {"dim": [{"size": "4"}]}}}, "dtype": {"type": "DT_INT32"}}}, {"name": "PartitionedCall/split_51", "op": "Const", "attr": {"value": {"tensor": {"dtype": "DT_FLOAT", "tensorShape": {"dim": [{"size": "3"}, {"size": "3"}, {"size": "96"}, {"size": "24"}]}}}, "dtype": {"type": "DT_FLOAT"}}}, {"name": "PartitionedCall/transpose_189/perm", "op": "Const", "attr": {"value": {"tensor": {"dtype": "DT_INT32", "tensorShape": {"dim": [{"size": "4"}]}}}, "dtype": {"type": "DT_INT32"}}}, {"name": "ConstantFolding/PartitionedCall/split_52-folded-1", "op": "Const", "attr": {"value": {"tensor": {"dtype": "DT_INT32", "tensorShape": {"dim": [{"size": "2"}]}}}, "dtype": {"type": "DT_INT32"}}}, {"name": "PartitionedCall/transpose_196/perm", "op": "Const", "attr": {"value": {"tensor": {"dtype": "DT_INT32", "tensorShape": {"dim": [{"size": "4"}]}}}, "dtype": {"type": "DT_INT32"}}}, {"name": "PartitionedCall/split_54", "op": "Const", "attr": {"value": {"tensor": {"dtype": "DT_FLOAT", "tensorShape": {"dim": [{"size": "1"}, {"size": "1"}, {"size": "24"}, {"size": "6"}]}}}, "dtype": {"type": "DT_FLOAT"}}}, {"name": "PartitionedCall/onnx_tf_prefix_sng_Constant_266", "op": "Const", "attr": {"value": {"tensor": {"dtype": "DT_FLOAT", "tensorShape": {"dim": [{"size": "6"}]}}}, "dtype": {"type": "DT_FLOAT"}}}, {"name": "PartitionedCall/transpose_197/perm", "op": "Const", "attr": {"value": {"tensor": {"dtype": "DT_INT32", "tensorShape": {"dim": [{"size": "4"}]}}}, "dtype": {"type": "DT_INT32"}}}, {"name": "PartitionedCall/transpose_202/perm", "op": "Const", "attr": {"value": {"tensor": {"dtype": "DT_INT32", "tensorShape": {"dim": [{"size": "4"}]}}}, "dtype": {"type": "DT_INT32"}}}, {"name": "PartitionedCall/split_57", "op": "Const", "attr": {"value": {"tensor": {"dtype": "DT_FLOAT", "tensorShape": {"dim": [{"size": "1"}, {"size": "1"}, {"size": "6"}, {"size": "24"}]}}}, "dtype": {"type": "DT_FLOAT"}}}, {"name": "PartitionedCall/onnx_tf_prefix_sng_Constant_268", "op": "Const", "attr": {"value": {"tensor": {"dtype": "DT_FLOAT", "tensorShape": {"dim": [{"size": "24"}]}}}, "dtype": {"type": "DT_FLOAT"}}}, {"name": "PartitionedCall/transpose_203/perm", "op": "Const", "attr": {"value": {"tensor": {"dtype": "DT_INT32", "tensorShape": {"dim": [{"size": "4"}]}}}, "dtype": {"type": "DT_INT32"}}}, {"name": "PartitionedCall/mul_48/y", "op": "Const", "attr": {"value": {"tensor": {"dtype": "DT_FLOAT", "tensorShape": {}}}, "dtype": {"type": "DT_FLOAT"}}}, {"name": "PartitionedCall/add_38/y", "op": "Const", "attr": {"value": {"tensor": {"dtype": "DT_FLOAT", "tensorShape": {}}}, "dtype": {"type": "DT_FLOAT"}}}, {"name": "PartitionedCall/clip_by_value_5/Minimum/y", "op": "Const", "attr": {"value": {"tensor": {"dtype": "DT_FLOAT", "tensorShape": {}}}, "dtype": {"type": "DT_FLOAT"}}}, {"name": "PartitionedCall/clip_by_value_5/y", "op": "Const", "attr": {"value": {"tensor": {"dtype": "DT_FLOAT", "tensorShape": {}}}, "dtype": {"type": "DT_FLOAT"}}}, {"name": "PartitionedCall/strided_slice_9/stack", "op": "Const", "attr": {"value": {"tensor": {"dtype": "DT_INT32", "tensorShape": {"dim": [{"size": "1"}]}}}, "dtype": {"type": "DT_INT32"}}}, {"name": "PartitionedCall/strided_slice_9/stack_1", "op": "Const", "attr": {"value": {"tensor": {"dtype": "DT_INT32", "tensorShape": {"dim": [{"size": "1"}]}}}, "dtype": {"type": "DT_INT32"}}}, {"name": "PartitionedCall/strided_slice_9/stack_2", "op": "Const", "attr": {"value": {"tensor": {"dtype": "DT_INT32", "tensorShape": {"dim": [{"size": "1"}]}}}, "dtype": {"type": "DT_INT32"}}}, {"name": "PartitionedCall/transpose_222/perm", "op": "Const", "attr": {"value": {"tensor": {"dtype": "DT_INT32", "tensorShape": {"dim": [{"size": "4"}]}}}, "dtype": {"type": "DT_INT32"}}}, {"name": "PartitionedCall/transpose_223/perm", "op": "Const", "attr": {"value": {"tensor": {"dtype": "DT_INT32", "tensorShape": {"dim": [{"size": "4"}]}}}, "dtype": {"type": "DT_INT32"}}}, {"name": "PartitionedCall/strided_slice_10", "op": "Const", "attr": {"value": {"tensor": {"dtype": "DT_FLOAT", "tensorShape": {"dim": [{"size": "2"}]}}}, "dtype": {"type": "DT_FLOAT"}}}, {"name": "PartitionedCall/Const_61", "op": "Const", "attr": {"value": {"tensor": {"dtype": "DT_INT32", "tensorShape": {"dim": [{"size": "4"}, {"size": "2"}]}}}, "dtype": {"type": "DT_INT32"}}}, {"name": "PartitionedCall/transpose_199/perm", "op": "Const", "attr": {"value": {"tensor": {"dtype": "DT_INT32", "tensorShape": {"dim": [{"size": "4"}]}}}, "dtype": {"type": "DT_INT32"}}}, {"name": "PartitionedCall/split_55", "op": "Const", "attr": {"value": {"tensor": {"dtype": "DT_FLOAT", "tensorShape": {"dim": [{"size": "3"}, {"size": "3"}, {"size": "96"}, {"size": "24"}]}}}, "dtype": {"type": "DT_FLOAT"}}}, {"name": "PartitionedCall/transpose_200/perm", "op": "Const", "attr": {"value": {"tensor": {"dtype": "DT_INT32", "tensorShape": {"dim": [{"size": "4"}]}}}, "dtype": {"type": "DT_INT32"}}}, {"name": "ConstantFolding/PartitionedCall/split_56-folded-1", "op": "Const", "attr": {"value": {"tensor": {"dtype": "DT_INT32", "tensorShape": {"dim": [{"size": "2"}]}}}, "dtype": {"type": "DT_INT32"}}}, {"name": "PartitionedCall/transpose_205/perm", "op": "Const", "attr": {"value": {"tensor": {"dtype": "DT_INT32", "tensorShape": {"dim": [{"size": "4"}]}}}, "dtype": {"type": "DT_INT32"}}}, {"name": "PartitionedCall/split_58", "op": "Const", "attr": {"value": {"tensor": {"dtype": "DT_FLOAT", "tensorShape": {"dim": [{"size": "1"}, {"size": "1"}, {"size": "24"}, {"size": "6"}]}}}, "dtype": {"type": "DT_FLOAT"}}}, {"name": "PartitionedCall/onnx_tf_prefix_sng_Constant_255", "op": "Const", "attr": {"value": {"tensor": {"dtype": "DT_FLOAT", "tensorShape": {"dim": [{"size": "6"}]}}}, "dtype": {"type": "DT_FLOAT"}}}, {"name": "PartitionedCall/transpose_206/perm", "op": "Const", "attr": {"value": {"tensor": {"dtype": "DT_INT32", "tensorShape": {"dim": [{"size": "4"}]}}}, "dtype": {"type": "DT_INT32"}}}, {"name": "PartitionedCall/transpose_211/perm", "op": "Const", "attr": {"value": {"tensor": {"dtype": "DT_INT32", "tensorShape": {"dim": [{"size": "4"}]}}}, "dtype": {"type": "DT_INT32"}}}, {"name": "PartitionedCall/split_61", "op": "Const", "attr": {"value": {"tensor": {"dtype": "DT_FLOAT", "tensorShape": {"dim": [{"size": "1"}, {"size": "1"}, {"size": "6"}, {"size": "24"}]}}}, "dtype": {"type": "DT_FLOAT"}}}, {"name": "PartitionedCall/onnx_tf_prefix_sng_Constant_257", "op": "Const", "attr": {"value": {"tensor": {"dtype": "DT_FLOAT", "tensorShape": {"dim": [{"size": "24"}]}}}, "dtype": {"type": "DT_FLOAT"}}}, {"name": "PartitionedCall/transpose_212/perm", "op": "Const", "attr": {"value": {"tensor": {"dtype": "DT_INT32", "tensorShape": {"dim": [{"size": "4"}]}}}, "dtype": {"type": "DT_INT32"}}}, {"name": "PartitionedCall/mul_50/y", "op": "Const", "attr": {"value": {"tensor": {"dtype": "DT_FLOAT", "tensorShape": {}}}, "dtype": {"type": "DT_FLOAT"}}}, {"name": "PartitionedCall/add_41/y", "op": "Const", "attr": {"value": {"tensor": {"dtype": "DT_FLOAT", "tensorShape": {}}}, "dtype": {"type": "DT_FLOAT"}}}, {"name": "PartitionedCall/clip_by_value_6/Minimum/y", "op": "Const", "attr": {"value": {"tensor": {"dtype": "DT_FLOAT", "tensorShape": {}}}, "dtype": {"type": "DT_FLOAT"}}}, {"name": "PartitionedCall/clip_by_value_6/y", "op": "Const", "attr": {"value": {"tensor": {"dtype": "DT_FLOAT", "tensorShape": {}}}, "dtype": {"type": "DT_FLOAT"}}}, {"name": "PartitionedCall/strided_slice_11/stack", "op": "Const", "attr": {"value": {"tensor": {"dtype": "DT_INT32", "tensorShape": {"dim": [{"size": "1"}]}}}, "dtype": {"type": "DT_INT32"}}}, {"name": "PartitionedCall/strided_slice_11/stack_1", "op": "Const", "attr": {"value": {"tensor": {"dtype": "DT_INT32", "tensorShape": {"dim": [{"size": "1"}]}}}, "dtype": {"type": "DT_INT32"}}}, {"name": "PartitionedCall/strided_slice_11/stack_2", "op": "Const", "attr": {"value": {"tensor": {"dtype": "DT_INT32", "tensorShape": {"dim": [{"size": "1"}]}}}, "dtype": {"type": "DT_INT32"}}}, {"name": "PartitionedCall/transpose_224/perm", "op": "Const", "attr": {"value": {"tensor": {"dtype": "DT_INT32", "tensorShape": {"dim": [{"size": "4"}]}}}, "dtype": {"type": "DT_INT32"}}}, {"name": "PartitionedCall/transpose_34/perm", "op": "Const", "attr": {"value": {"tensor": {"dtype": "DT_INT32", "tensorShape": {"dim": [{"size": "4"}]}}}, "dtype": {"type": "DT_INT32"}}}, {"name": "PartitionedCall/split_8", "op": "Const", "attr": {"value": {"tensor": {"dtype": "DT_FLOAT", "tensorShape": {"dim": [{"size": "1"}, {"size": "1"}, {"size": "16"}, {"size": "96"}]}}}, "dtype": {"type": "DT_FLOAT"}}}, {"name": "PartitionedCall/transpose_35/perm", "op": "Const", "attr": {"value": {"tensor": {"dtype": "DT_INT32", "tensorShape": {"dim": [{"size": "4"}]}}}, "dtype": {"type": "DT_INT32"}}}, {"name": "ConstantFolding/PartitionedCall/split_9-folded-1", "op": "Const", "attr": {"value": {"tensor": {"dtype": "DT_INT32", "tensorShape": {"dim": [{"size": "2"}]}}}, "dtype": {"type": "DT_INT32"}}}, {"name": "PartitionedCall/transpose_37/perm", "op": "Const", "attr": {"value": {"tensor": {"dtype": "DT_INT32", "tensorShape": {"dim": [{"size": "4"}]}}}, "dtype": {"type": "DT_INT32"}}}, {"name": "PartitionedCall/split_10", "op": "Const", "attr": {"value": {"tensor": {"dtype": "DT_FLOAT", "tensorShape": {"dim": [{"size": "1"}, {"size": "1"}, {"size": "96"}, {"size": "24"}]}}}, "dtype": {"type": "DT_FLOAT"}}}, {"name": "PartitionedCall/onnx_tf_prefix_sng_Constant_239", "op": "Const", "attr": {"value": {"tensor": {"dtype": "DT_FLOAT", "tensorShape": {"dim": [{"size": "24"}]}}}, "dtype": {"type": "DT_FLOAT"}}}, {"name": "PartitionedCall/transpose_38/perm", "op": "Const", "attr": {"value": {"tensor": {"dtype": "DT_INT32", "tensorShape": {"dim": [{"size": "4"}]}}}, "dtype": {"type": "DT_INT32"}}}, {"name": "PartitionedCall/transpose_43/perm", "op": "Const", "attr": {"value": {"tensor": {"dtype": "DT_INT32", "tensorShape": {"dim": [{"size": "4"}]}}}, "dtype": {"type": "DT_INT32"}}}, {"name": "PartitionedCall/split_11", "op": "Const", "attr": {"value": {"tensor": {"dtype": "DT_FLOAT", "tensorShape": {"dim": [{"size": "1"}, {"size": "1"}, {"size": "24"}, {"size": "96"}]}}}, "dtype": {"type": "DT_FLOAT"}}}, {"name": "PartitionedCall/onnx_tf_prefix_sng_Constant_241", "op": "Const", "attr": {"value": {"tensor": {"dtype": "DT_FLOAT", "tensorShape": {"dim": [{"size": "96"}]}}}, "dtype": {"type": "DT_FLOAT"}}}, {"name": "PartitionedCall/transpose_44/perm", "op": "Const", "attr": {"value": {"tensor": {"dtype": "DT_INT32", "tensorShape": {"dim": [{"size": "4"}]}}}, "dtype": {"type": "DT_INT32"}}}, {"name": "PartitionedCall/mul_2/y", "op": "Const", "attr": {"value": {"tensor": {"dtype": "DT_FLOAT", "tensorShape": {}}}, "dtype": {"type": "DT_FLOAT"}}}, {"name": "PartitionedCall/add_3/y", "op": "Const", "attr": {"value": {"tensor": {"dtype": "DT_FLOAT", "tensorShape": {}}}, "dtype": {"type": "DT_FLOAT"}}}, {"name": "PartitionedCall/clip_by_value/Minimum/y", "op": "Const", "attr": {"value": {"tensor": {"dtype": "DT_FLOAT", "tensorShape": {}}}, "dtype": {"type": "DT_FLOAT"}}}, {"name": "PartitionedCall/clip_by_value/y", "op": "Const", "attr": {"value": {"tensor": {"dtype": "DT_FLOAT", "tensorShape": {}}}, "dtype": {"type": "DT_FLOAT"}}}, {"name": "PartitionedCall/transpose_190/perm", "op": "Const", "attr": {"value": {"tensor": {"dtype": "DT_INT32", "tensorShape": {"dim": [{"size": "4"}]}}}, "dtype": {"type": "DT_INT32"}}}, {"name": "PartitionedCall/strided_slice_4", "op": "Const", "attr": {"value": {"tensor": {"dtype": "DT_FLOAT", "tensorShape": {"dim": [{"size": "2"}]}}}, "dtype": {"type": "DT_FLOAT"}}}, {"name": "PartitionedCall/transpose_70/perm", "op": "Const", "attr": {"value": {"tensor": {"dtype": "DT_INT32", "tensorShape": {"dim": [{"size": "4"}]}}}, "dtype": {"type": "DT_INT32"}}}, {"name": "PartitionedCall/split_18", "op": "Const", "attr": {"value": {"tensor": {"dtype": "DT_FLOAT", "tensorShape": {"dim": [{"size": "1"}, {"size": "1"}, {"size": "24"}, {"size": "96"}]}}}, "dtype": {"type": "DT_FLOAT"}}}, {"name": "PartitionedCall/transpose_71/perm", "op": "Const", "attr": {"value": {"tensor": {"dtype": "DT_INT32", "tensorShape": {"dim": [{"size": "4"}]}}}, "dtype": {"type": "DT_INT32"}}}, {"name": "ConstantFolding/PartitionedCall/split_19-folded-1", "op": "Const", "attr": {"value": {"tensor": {"dtype": "DT_INT32", "tensorShape": {"dim": [{"size": "2"}]}}}, "dtype": {"type": "DT_INT32"}}}, {"name": "PartitionedCall/transpose_73/perm", "op": "Const", "attr": {"value": {"tensor": {"dtype": "DT_INT32", "tensorShape": {"dim": [{"size": "4"}]}}}, "dtype": {"type": "DT_INT32"}}}, {"name": "PartitionedCall/split_20", "op": "Const", "attr": {"value": {"tensor": {"dtype": "DT_FLOAT", "tensorShape": {"dim": [{"size": "1"}, {"size": "1"}, {"size": "96"}, {"size": "24"}]}}}, "dtype": {"type": "DT_FLOAT"}}}, {"name": "PartitionedCall/onnx_tf_prefix_sng_Constant_250", "op": "Const", "attr": {"value": {"tensor": {"dtype": "DT_FLOAT", "tensorShape": {"dim": [{"size": "24"}]}}}, "dtype": {"type": "DT_FLOAT"}}}, {"name": "PartitionedCall/transpose_74/perm", "op": "Const", "attr": {"value": {"tensor": {"dtype": "DT_INT32", "tensorShape": {"dim": [{"size": "4"}]}}}, "dtype": {"type": "DT_INT32"}}}, {"name": "PartitionedCall/transpose_79/perm", "op": "Const", "attr": {"value": {"tensor": {"dtype": "DT_INT32", "tensorShape": {"dim": [{"size": "4"}]}}}, "dtype": {"type": "DT_INT32"}}}, {"name": "PartitionedCall/split_21", "op": "Const", "attr": {"value": {"tensor": {"dtype": "DT_FLOAT", "tensorShape": {"dim": [{"size": "1"}, {"size": "1"}, {"size": "24"}, {"size": "96"}]}}}, "dtype": {"type": "DT_FLOAT"}}}, {"name": "PartitionedCall/onnx_tf_prefix_sng_Constant_252", "op": "Const", "attr": {"value": {"tensor": {"dtype": "DT_FLOAT", "tensorShape": {"dim": [{"size": "96"}]}}}, "dtype": {"type": "DT_FLOAT"}}}, {"name": "PartitionedCall/transpose_80/perm", "op": "Const", "attr": {"value": {"tensor": {"dtype": "DT_INT32", "tensorShape": {"dim": [{"size": "4"}]}}}, "dtype": {"type": "DT_INT32"}}}, {"name": "PartitionedCall/mul_7/y", "op": "Const", "attr": {"value": {"tensor": {"dtype": "DT_FLOAT", "tensorShape": {}}}, "dtype": {"type": "DT_FLOAT"}}}, {"name": "PartitionedCall/add_8/y", "op": "Const", "attr": {"value": {"tensor": {"dtype": "DT_FLOAT", "tensorShape": {}}}, "dtype": {"type": "DT_FLOAT"}}}, {"name": "PartitionedCall/clip_by_value_1/Minimum/y", "op": "Const", "attr": {"value": {"tensor": {"dtype": "DT_FLOAT", "tensorShape": {}}}, "dtype": {"type": "DT_FLOAT"}}}, {"name": "PartitionedCall/clip_by_value_1/y", "op": "Const", "attr": {"value": {"tensor": {"dtype": "DT_FLOAT", "tensorShape": {}}}, "dtype": {"type": "DT_FLOAT"}}}, {"name": "PartitionedCall/transpose_182/perm", "op": "Const", "attr": {"value": {"tensor": {"dtype": "DT_INT32", "tensorShape": {"dim": [{"size": "4"}]}}}, "dtype": {"type": "DT_INT32"}}}, {"name": "PartitionedCall/strided_slice_2", "op": "Const", "attr": {"value": {"tensor": {"dtype": "DT_FLOAT", "tensorShape": {"dim": [{"size": "2"}]}}}, "dtype": {"type": "DT_FLOAT"}}}, {"name": "PartitionedCall/transpose_133/perm", "op": "Const", "attr": {"value": {"tensor": {"dtype": "DT_INT32", "tensorShape": {"dim": [{"size": "4"}]}}}, "dtype": {"type": "DT_INT32"}}}, {"name": "PartitionedCall/split_34", "op": "Const", "attr": {"value": {"tensor": {"dtype": "DT_FLOAT", "tensorShape": {"dim": [{"size": "1"}, {"size": "1"}, {"size": "56"}, {"size": "96"}]}}}, "dtype": {"type": "DT_FLOAT"}}}, {"name": "PartitionedCall/transpose_134/perm", "op": "Const", "attr": {"value": {"tensor": {"dtype": "DT_INT32", "tensorShape": {"dim": [{"size": "4"}]}}}, "dtype": {"type": "DT_INT32"}}}, {"name": "ConstantFolding/PartitionedCall/split_35-folded-1", "op": "Const", "attr": {"value": {"tensor": {"dtype": "DT_INT32", "tensorShape": {"dim": [{"size": "2"}]}}}, "dtype": {"type": "DT_INT32"}}}, {"name": "PartitionedCall/transpose_136/perm", "op": "Const", "attr": {"value": {"tensor": {"dtype": "DT_INT32", "tensorShape": {"dim": [{"size": "4"}]}}}, "dtype": {"type": "DT_INT32"}}}, {"name": "PartitionedCall/split_36", "op": "Const", "attr": {"value": {"tensor": {"dtype": "DT_FLOAT", "tensorShape": {"dim": [{"size": "1"}, {"size": "1"}, {"size": "96"}, {"size": "24"}]}}}, "dtype": {"type": "DT_FLOAT"}}}, {"name": "PartitionedCall/onnx_tf_prefix_sng_Constant_261", "op": "Const", "attr": {"value": {"tensor": {"dtype": "DT_FLOAT", "tensorShape": {"dim": [{"size": "24"}]}}}, "dtype": {"type": "DT_FLOAT"}}}, {"name": "PartitionedCall/transpose_137/perm", "op": "Const", "attr": {"value": {"tensor": {"dtype": "DT_INT32", "tensorShape": {"dim": [{"size": "4"}]}}}, "dtype": {"type": "DT_INT32"}}}, {"name": "PartitionedCall/transpose_142/perm", "op": "Const", "attr": {"value": {"tensor": {"dtype": "DT_INT32", "tensorShape": {"dim": [{"size": "4"}]}}}, "dtype": {"type": "DT_INT32"}}}, {"name": "PartitionedCall/split_37", "op": "Const", "attr": {"value": {"tensor": {"dtype": "DT_FLOAT", "tensorShape": {"dim": [{"size": "1"}, {"size": "1"}, {"size": "24"}, {"size": "96"}]}}}, "dtype": {"type": "DT_FLOAT"}}}, {"name": "PartitionedCall/onnx_tf_prefix_sng_Constant_263", "op": "Const", "attr": {"value": {"tensor": {"dtype": "DT_FLOAT", "tensorShape": {"dim": [{"size": "96"}]}}}, "dtype": {"type": "DT_FLOAT"}}}, {"name": "PartitionedCall/transpose_143/perm", "op": "Const", "attr": {"value": {"tensor": {"dtype": "DT_INT32", "tensorShape": {"dim": [{"size": "4"}]}}}, "dtype": {"type": "DT_INT32"}}}, {"name": "PartitionedCall/mul_32/y", "op": "Const", "attr": {"value": {"tensor": {"dtype": "DT_FLOAT", "tensorShape": {}}}, "dtype": {"type": "DT_FLOAT"}}}, {"name": "PartitionedCall/add_23/y", "op": "Const", "attr": {"value": {"tensor": {"dtype": "DT_FLOAT", "tensorShape": {}}}, "dtype": {"type": "DT_FLOAT"}}}, {"name": "PartitionedCall/clip_by_value_2/Minimum/y", "op": "Const", "attr": {"value": {"tensor": {"dtype": "DT_FLOAT", "tensorShape": {}}}, "dtype": {"type": "DT_FLOAT"}}}, {"name": "PartitionedCall/clip_by_value_2/y", "op": "Const", "attr": {"value": {"tensor": {"dtype": "DT_FLOAT", "tensorShape": {}}}, "dtype": {"type": "DT_FLOAT"}}}, {"name": "PartitionedCall/transpose_177/perm", "op": "Const", "attr": {"value": {"tensor": {"dtype": "DT_INT32", "tensorShape": {"dim": [{"size": "4"}]}}}, "dtype": {"type": "DT_INT32"}}}, {"name": "PartitionedCall/strided_slice", "op": "Const", "attr": {"value": {"tensor": {"dtype": "DT_FLOAT", "tensorShape": {"dim": [{"size": "2"}]}}}, "dtype": {"type": "DT_FLOAT"}}}, {"name": "PartitionedCall/Const_54", "op": "Const", "attr": {"value": {"tensor": {"dtype": "DT_FLOAT", "tensorShape": {}}}, "dtype": {"type": "DT_FLOAT"}}}, {"name": "PartitionedCall/Const_55", "op": "Const", "attr": {"value": {"tensor": {"dtype": "DT_FLOAT", "tensorShape": {}}}, "dtype": {"type": "DT_FLOAT"}}}, {"name": "PartitionedCall/mul_41/x", "op": "Const", "attr": {"value": {"tensor": {"dtype": "DT_FLOAT", "tensorShape": {}}}, "dtype": {"type": "DT_FLOAT"}}}, {"name": "PartitionedCall/Const_52", "op": "Const", "attr": {"value": {"tensor": {"dtype": "DT_FLOAT", "tensorShape": {}}}, "dtype": {"type": "DT_FLOAT"}}}, {"name": "PartitionedCall/Const_53", "op": "Const", "attr": {"value": {"tensor": {"dtype": "DT_FLOAT", "tensorShape": {}}}, "dtype": {"type": "DT_FLOAT"}}}, {"name": "PartitionedCall/mul_39/x", "op": "Const", "attr": {"value": {"tensor": {"dtype": "DT_FLOAT", "tensorShape": {}}}, "dtype": {"type": "DT_FLOAT"}}}, {"name": "PartitionedCall/Const_49", "op": "Const", "attr": {"value": {"tensor": {"dtype": "DT_FLOAT", "tensorShape": {}}}, "dtype": {"type": "DT_FLOAT"}}}, {"name": "PartitionedCall/Const_50", "op": "Const", "attr": {"value": {"tensor": {"dtype": "DT_FLOAT", "tensorShape": {}}}, "dtype": {"type": "DT_FLOAT"}}}, {"name": "PartitionedCall/mul_37/x", "op": "Const", "attr": {"value": {"tensor": {"dtype": "DT_FLOAT", "tensorShape": {}}}, "dtype": {"type": "DT_FLOAT"}}}, {"name": "PartitionedCall/Const_47", "op": "Const", "attr": {"value": {"tensor": {"dtype": "DT_FLOAT", "tensorShape": {}}}, "dtype": {"type": "DT_FLOAT"}}}, {"name": "PartitionedCall/Const_48", "op": "Const", "attr": {"value": {"tensor": {"dtype": "DT_FLOAT", "tensorShape": {}}}, "dtype": {"type": "DT_FLOAT"}}}, {"name": "PartitionedCall/mul_35/x", "op": "Const", "attr": {"value": {"tensor": {"dtype": "DT_FLOAT", "tensorShape": {}}}, "dtype": {"type": "DT_FLOAT"}}}, {"name": "PartitionedCall/Const_44", "op": "Const", "attr": {"value": {"tensor": {"dtype": "DT_FLOAT", "tensorShape": {}}}, "dtype": {"type": "DT_FLOAT"}}}, {"name": "PartitionedCall/Const_45", "op": "Const", "attr": {"value": {"tensor": {"dtype": "DT_FLOAT", "tensorShape": {}}}, "dtype": {"type": "DT_FLOAT"}}}, {"name": "PartitionedCall/mul_33/x", "op": "Const", "attr": {"value": {"tensor": {"dtype": "DT_FLOAT", "tensorShape": {}}}, "dtype": {"type": "DT_FLOAT"}}}, {"name": "PartitionedCall/Const_42", "op": "Const", "attr": {"value": {"tensor": {"dtype": "DT_FLOAT", "tensorShape": {}}}, "dtype": {"type": "DT_FLOAT"}}}, {"name": "PartitionedCall/Const_43", "op": "Const", "attr": {"value": {"tensor": {"dtype": "DT_FLOAT", "tensorShape": {}}}, "dtype": {"type": "DT_FLOAT"}}}, {"name": "PartitionedCall/mul_30/x", "op": "Const", "attr": {"value": {"tensor": {"dtype": "DT_FLOAT", "tensorShape": {}}}, "dtype": {"type": "DT_FLOAT"}}}, {"name": "PartitionedCall/Const_39", "op": "Const", "attr": {"value": {"tensor": {"dtype": "DT_FLOAT", "tensorShape": {}}}, "dtype": {"type": "DT_FLOAT"}}}, {"name": "PartitionedCall/Const_40", "op": "Const", "attr": {"value": {"tensor": {"dtype": "DT_FLOAT", "tensorShape": {}}}, "dtype": {"type": "DT_FLOAT"}}}, {"name": "PartitionedCall/mul_28/x", "op": "Const", "attr": {"value": {"tensor": {"dtype": "DT_FLOAT", "tensorShape": {}}}, "dtype": {"type": "DT_FLOAT"}}}, {"name": "PartitionedCall/Const_37", "op": "Const", "attr": {"value": {"tensor": {"dtype": "DT_FLOAT", "tensorShape": {}}}, "dtype": {"type": "DT_FLOAT"}}}, {"name": "PartitionedCall/Const_38", "op": "Const", "attr": {"value": {"tensor": {"dtype": "DT_FLOAT", "tensorShape": {}}}, "dtype": {"type": "DT_FLOAT"}}}, {"name": "PartitionedCall/mul_26/x", "op": "Const", "attr": {"value": {"tensor": {"dtype": "DT_FLOAT", "tensorShape": {}}}, "dtype": {"type": "DT_FLOAT"}}}, {"name": "PartitionedCall/Const_34", "op": "Const", "attr": {"value": {"tensor": {"dtype": "DT_FLOAT", "tensorShape": {}}}, "dtype": {"type": "DT_FLOAT"}}}, {"name": "PartitionedCall/Const_35", "op": "Const", "attr": {"value": {"tensor": {"dtype": "DT_FLOAT", "tensorShape": {}}}, "dtype": {"type": "DT_FLOAT"}}}, {"name": "PartitionedCall/mul_24/x", "op": "Const", "attr": {"value": {"tensor": {"dtype": "DT_FLOAT", "tensorShape": {}}}, "dtype": {"type": "DT_FLOAT"}}}, {"name": "PartitionedCall/Const_32", "op": "Const", "attr": {"value": {"tensor": {"dtype": "DT_FLOAT", "tensorShape": {}}}, "dtype": {"type": "DT_FLOAT"}}}, {"name": "PartitionedCall/Const_33", "op": "Const", "attr": {"value": {"tensor": {"dtype": "DT_FLOAT", "tensorShape": {}}}, "dtype": {"type": "DT_FLOAT"}}}, {"name": "PartitionedCall/mul_22/x", "op": "Const", "attr": {"value": {"tensor": {"dtype": "DT_FLOAT", "tensorShape": {}}}, "dtype": {"type": "DT_FLOAT"}}}, {"name": "PartitionedCall/Const_29", "op": "Const", "attr": {"value": {"tensor": {"dtype": "DT_FLOAT", "tensorShape": {}}}, "dtype": {"type": "DT_FLOAT"}}}, {"name": "PartitionedCall/Const_30", "op": "Const", "attr": {"value": {"tensor": {"dtype": "DT_FLOAT", "tensorShape": {}}}, "dtype": {"type": "DT_FLOAT"}}}, {"name": "PartitionedCall/mul_20/x", "op": "Const", "attr": {"value": {"tensor": {"dtype": "DT_FLOAT", "tensorShape": {}}}, "dtype": {"type": "DT_FLOAT"}}}, {"name": "PartitionedCall/Const_27", "op": "Const", "attr": {"value": {"tensor": {"dtype": "DT_FLOAT", "tensorShape": {}}}, "dtype": {"type": "DT_FLOAT"}}}, {"name": "PartitionedCall/Const_28", "op": "Const", "attr": {"value": {"tensor": {"dtype": "DT_FLOAT", "tensorShape": {}}}, "dtype": {"type": "DT_FLOAT"}}}, {"name": "PartitionedCall/mul_18/x", "op": "Const", "attr": {"value": {"tensor": {"dtype": "DT_FLOAT", "tensorShape": {}}}, "dtype": {"type": "DT_FLOAT"}}}, {"name": "PartitionedCall/Const_24", "op": "Const", "attr": {"value": {"tensor": {"dtype": "DT_FLOAT", "tensorShape": {}}}, "dtype": {"type": "DT_FLOAT"}}}, {"name": "PartitionedCall/Const_25", "op": "Const", "attr": {"value": {"tensor": {"dtype": "DT_FLOAT", "tensorShape": {}}}, "dtype": {"type": "DT_FLOAT"}}}, {"name": "PartitionedCall/mul_16/x", "op": "Const", "attr": {"value": {"tensor": {"dtype": "DT_FLOAT", "tensorShape": {}}}, "dtype": {"type": "DT_FLOAT"}}}, {"name": "PartitionedCall/Const_22", "op": "Const", "attr": {"value": {"tensor": {"dtype": "DT_FLOAT", "tensorShape": {}}}, "dtype": {"type": "DT_FLOAT"}}}, {"name": "PartitionedCall/Const_23", "op": "Const", "attr": {"value": {"tensor": {"dtype": "DT_FLOAT", "tensorShape": {}}}, "dtype": {"type": "DT_FLOAT"}}}, {"name": "PartitionedCall/mul_14/x", "op": "Const", "attr": {"value": {"tensor": {"dtype": "DT_FLOAT", "tensorShape": {}}}, "dtype": {"type": "DT_FLOAT"}}}, {"name": "PartitionedCall/Const_19", "op": "Const", "attr": {"value": {"tensor": {"dtype": "DT_FLOAT", "tensorShape": {}}}, "dtype": {"type": "DT_FLOAT"}}}, {"name": "PartitionedCall/Const_20", "op": "Const", "attr": {"value": {"tensor": {"dtype": "DT_FLOAT", "tensorShape": {}}}, "dtype": {"type": "DT_FLOAT"}}}, {"name": "PartitionedCall/mul_12/x", "op": "Const", "attr": {"value": {"tensor": {"dtype": "DT_FLOAT", "tensorShape": {}}}, "dtype": {"type": "DT_FLOAT"}}}, {"name": "PartitionedCall/Const_17", "op": "Const", "attr": {"value": {"tensor": {"dtype": "DT_FLOAT", "tensorShape": {}}}, "dtype": {"type": "DT_FLOAT"}}}, {"name": "PartitionedCall/Const_18", "op": "Const", "attr": {"value": {"tensor": {"dtype": "DT_FLOAT", "tensorShape": {}}}, "dtype": {"type": "DT_FLOAT"}}}, {"name": "PartitionedCall/mul_10/x", "op": "Const", "attr": {"value": {"tensor": {"dtype": "DT_FLOAT", "tensorShape": {}}}, "dtype": {"type": "DT_FLOAT"}}}, {"name": "PartitionedCall/Const_14", "op": "Const", "attr": {"value": {"tensor": {"dtype": "DT_FLOAT", "tensorShape": {}}}, "dtype": {"type": "DT_FLOAT"}}}, {"name": "PartitionedCall/Const_15", "op": "Const", "attr": {"value": {"tensor": {"dtype": "DT_FLOAT", "tensorShape": {}}}, "dtype": {"type": "DT_FLOAT"}}}, {"name": "PartitionedCall/mul_8/x", "op": "Const", "attr": {"value": {"tensor": {"dtype": "DT_FLOAT", "tensorShape": {}}}, "dtype": {"type": "DT_FLOAT"}}}, {"name": "PartitionedCall/Const_12", "op": "Const", "attr": {"value": {"tensor": {"dtype": "DT_FLOAT", "tensorShape": {}}}, "dtype": {"type": "DT_FLOAT"}}}, {"name": "PartitionedCall/Const_13", "op": "Const", "attr": {"value": {"tensor": {"dtype": "DT_FLOAT", "tensorShape": {}}}, "dtype": {"type": "DT_FLOAT"}}}, {"name": "PartitionedCall/mul_5/x", "op": "Const", "attr": {"value": {"tensor": {"dtype": "DT_FLOAT", "tensorShape": {}}}, "dtype": {"type": "DT_FLOAT"}}}, {"name": "PartitionedCall/Const_9", "op": "Const", "attr": {"value": {"tensor": {"dtype": "DT_FLOAT", "tensorShape": {}}}, "dtype": {"type": "DT_FLOAT"}}}, {"name": "PartitionedCall/Const_10", "op": "Const", "attr": {"value": {"tensor": {"dtype": "DT_FLOAT", "tensorShape": {}}}, "dtype": {"type": "DT_FLOAT"}}}, {"name": "PartitionedCall/mul_3/x", "op": "Const", "attr": {"value": {"tensor": {"dtype": "DT_FLOAT", "tensorShape": {}}}, "dtype": {"type": "DT_FLOAT"}}}, {"name": "PartitionedCall/Const_1", "op": "Const", "attr": {"value": {"tensor": {"dtype": "DT_FLOAT", "tensorShape": {}}}, "dtype": {"type": "DT_FLOAT"}}}, {"name": "PartitionedCall/Const_2", "op": "Const", "attr": {"value": {"tensor": {"dtype": "DT_FLOAT", "tensorShape": {}}}, "dtype": {"type": "DT_FLOAT"}}}, {"name": "PartitionedCall/mul/x", "op": "Const", "attr": {"value": {"tensor": {"dtype": "DT_FLOAT", "tensorShape": {}}}, "dtype": {"type": "DT_FLOAT"}}}, {"name": "PartitionedCall/Const", "op": "Const", "attr": {"value": {"tensor": {"dtype": "DT_INT32", "tensorShape": {"dim": [{"size": "4"}, {"size": "2"}]}}}, "dtype": {"type": "DT_INT32"}}}, {"name": "PartitionedCall/transpose_1/perm", "op": "Const", "attr": {"value": {"tensor": {"dtype": "DT_INT32", "tensorShape": {"dim": [{"size": "4"}]}}}, "dtype": {"type": "DT_INT32"}}}, {"name": "PartitionedCall/split", "op": "Const", "attr": {"value": {"tensor": {"dtype": "DT_FLOAT", "tensorShape": {"dim": [{"size": "3"}, {"size": "3"}, {"size": "3"}, {"size": "8"}]}}}, "dtype": {"type": "DT_FLOAT"}}}, {"name": "PartitionedCall/transpose_2/perm", "op": "Const", "attr": {"value": {"tensor": {"dtype": "DT_INT32", "tensorShape": {"dim": [{"size": "4"}]}}}, "dtype": {"type": "DT_INT32"}}}, {"name": "PartitionedCall/onnx_tf_prefix_p2o.BatchNormalization.0/mul", "op": "Const", "attr": {"value": {"tensor": {"dtype": "DT_FLOAT", "tensorShape": {"dim": [{"size": "1"}, {"size": "8"}, {"size": "1"}, {"size": "1"}]}}}, "dtype": {"type": "DT_FLOAT"}}}, {"name": "PartitionedCall/onnx_tf_prefix_p2o.BatchNormalization.0/sub", "op": "Const", "attr": {"value": {"tensor": {"dtype": "DT_FLOAT", "tensorShape": {"dim": [{"size": "1"}, {"size": "8"}, {"size": "1"}, {"size": "1"}]}}}, "dtype": {"type": "DT_FLOAT"}}}, {"name": "PartitionedCall/add/y", "op": "Const", "attr": {"value": {"tensor": {"dtype": "DT_FLOAT", "tensorShape": {}}}, "dtype": {"type": "DT_FLOAT"}}}, {"name": "PartitionedCall/transpose_4/perm", "op": "Const", "attr": {"value": {"tensor": {"dtype": "DT_INT32", "tensorShape": {"dim": [{"size": "4"}]}}}, "dtype": {"type": "DT_INT32"}}}, {"name": "PartitionedCall/split_1", "op": "Const", "attr": {"value": {"tensor": {"dtype": "DT_FLOAT", "tensorShape": {"dim": [{"size": "1"}, {"size": "1"}, {"size": "8"}, {"size": "8"}]}}}, "dtype": {"type": "DT_FLOAT"}}}, {"name": "PartitionedCall/transpose_5/perm", "op": "Const", "attr": {"value": {"tensor": {"dtype": "DT_INT32", "tensorShape": {"dim": [{"size": "4"}]}}}, "dtype": {"type": "DT_INT32"}}}, {"name": "PartitionedCall/onnx_tf_prefix_p2o.BatchNormalization.1/mul", "op": "Const", "attr": {"value": {"tensor": {"dtype": "DT_FLOAT", "tensorShape": {"dim": [{"size": "1"}, {"size": "8"}, {"size": "1"}, {"size": "1"}]}}}, "dtype": {"type": "DT_FLOAT"}}}, {"name": "PartitionedCall/onnx_tf_prefix_p2o.BatchNormalization.1/sub", "op": "Const", "attr": {"value": {"tensor": {"dtype": "DT_FLOAT", "tensorShape": {"dim": [{"size": "1"}, {"size": "8"}, {"size": "1"}, {"size": "1"}]}}}, "dtype": {"type": "DT_FLOAT"}}}, {"name": "PartitionedCall/Const_3", "op": "Const", "attr": {"value": {"tensor": {"dtype": "DT_INT32", "tensorShape": {"dim": [{"size": "4"}, {"size": "2"}]}}}, "dtype": {"type": "DT_INT32"}}}, {"name": "PartitionedCall/transpose_7/perm", "op": "Const", "attr": {"value": {"tensor": {"dtype": "DT_INT32", "tensorShape": {"dim": [{"size": "4"}]}}}, "dtype": {"type": "DT_INT32"}}}, {"name": "PartitionedCall/Reshape_8", "op": "Const", "attr": {"value": {"tensor": {"dtype": "DT_FLOAT", "tensorShape": {"dim": [{"size": "3"}, {"size": "3"}, {"size": "8"}, {"size": "1"}]}}}, "dtype": {"type": "DT_FLOAT"}}}, {"name": "PartitionedCall/transpose_8/perm", "op": "Const", "attr": {"value": {"tensor": {"dtype": "DT_INT32", "tensorShape": {"dim": [{"size": "4"}]}}}, "dtype": {"type": "DT_INT32"}}}, {"name": "PartitionedCall/onnx_tf_prefix_p2o.BatchNormalization.2/mul", "op": "Const", "attr": {"value": {"tensor": {"dtype": "DT_FLOAT", "tensorShape": {"dim": [{"size": "1"}, {"size": "8"}, {"size": "1"}, {"size": "1"}]}}}, "dtype": {"type": "DT_FLOAT"}}}, {"name": "PartitionedCall/onnx_tf_prefix_p2o.BatchNormalization.2/sub", "op": "Const", "attr": {"value": {"tensor": {"dtype": "DT_FLOAT", "tensorShape": {"dim": [{"size": "1"}, {"size": "8"}, {"size": "1"}, {"size": "1"}]}}}, "dtype": {"type": "DT_FLOAT"}}}, {"name": "PartitionedCall/transpose_10/perm", "op": "Const", "attr": {"value": {"tensor": {"dtype": "DT_INT32", "tensorShape": {"dim": [{"size": "4"}]}}}, "dtype": {"type": "DT_INT32"}}}, {"name": "PartitionedCall/split_2", "op": "Const", "attr": {"value": {"tensor": {"dtype": "DT_FLOAT", "tensorShape": {"dim": [{"size": "1"}, {"size": "1"}, {"size": "8"}, {"size": "8"}]}}}, "dtype": {"type": "DT_FLOAT"}}}, {"name": "PartitionedCall/transpose_11/perm", "op": "Const", "attr": {"value": {"tensor": {"dtype": "DT_INT32", "tensorShape": {"dim": [{"size": "4"}]}}}, "dtype": {"type": "DT_INT32"}}}, {"name": "PartitionedCall/onnx_tf_prefix_p2o.BatchNormalization.3/mul", "op": "Const", "attr": {"value": {"tensor": {"dtype": "DT_FLOAT", "tensorShape": {"dim": [{"size": "1"}, {"size": "8"}, {"size": "1"}, {"size": "1"}]}}}, "dtype": {"type": "DT_FLOAT"}}}, {"name": "PartitionedCall/onnx_tf_prefix_p2o.BatchNormalization.3/sub", "op": "Const", "attr": {"value": {"tensor": {"dtype": "DT_FLOAT", "tensorShape": {"dim": [{"size": "1"}, {"size": "8"}, {"size": "1"}, {"size": "1"}]}}}, "dtype": {"type": "DT_FLOAT"}}}, {"name": "PartitionedCall/transpose_13/perm", "op": "Const", "attr": {"value": {"tensor": {"dtype": "DT_INT32", "tensorShape": {"dim": [{"size": "4"}]}}}, "dtype": {"type": "DT_INT32"}}}, {"name": "PartitionedCall/split_3", "op": "Const", "attr": {"value": {"tensor": {"dtype": "DT_FLOAT", "tensorShape": {"dim": [{"size": "1"}, {"size": "1"}, {"size": "8"}, {"size": "32"}]}}}, "dtype": {"type": "DT_FLOAT"}}}, {"name": "PartitionedCall/transpose_14/perm", "op": "Const", "attr": {"value": {"tensor": {"dtype": "DT_INT32", "tensorShape": {"dim": [{"size": "4"}]}}}, "dtype": {"type": "DT_INT32"}}}, {"name": "PartitionedCall/onnx_tf_prefix_p2o.BatchNormalization.4/mul", "op": "Const", "attr": {"value": {"tensor": {"dtype": "DT_FLOAT", "tensorShape": {"dim": [{"size": "1"}, {"size": "32"}, {"size": "1"}, {"size": "1"}]}}}, "dtype": {"type": "DT_FLOAT"}}}, {"name": "PartitionedCall/onnx_tf_prefix_p2o.BatchNormalization.4/sub", "op": "Const", "attr": {"value": {"tensor": {"dtype": "DT_FLOAT", "tensorShape": {"dim": [{"size": "1"}, {"size": "32"}, {"size": "1"}, {"size": "1"}]}}}, "dtype": {"type": "DT_FLOAT"}}}, {"name": "PartitionedCall/Const_4", "op": "Const", "attr": {"value": {"tensor": {"dtype": "DT_INT32", "tensorShape": {"dim": [{"size": "4"}, {"size": "2"}]}}}, "dtype": {"type": "DT_INT32"}}}, {"name": "PartitionedCall/transpose_16/perm", "op": "Const", "attr": {"value": {"tensor": {"dtype": "DT_INT32", "tensorShape": {"dim": [{"size": "4"}]}}}, "dtype": {"type": "DT_INT32"}}}, {"name": "PartitionedCall/Reshape_21", "op": "Const", "attr": {"value": {"tensor": {"dtype": "DT_FLOAT", "tensorShape": {"dim": [{"size": "3"}, {"size": "3"}, {"size": "32"}, {"size": "1"}]}}}, "dtype": {"type": "DT_FLOAT"}}}, {"name": "PartitionedCall/transpose_17/perm", "op": "Const", "attr": {"value": {"tensor": {"dtype": "DT_INT32", "tensorShape": {"dim": [{"size": "4"}]}}}, "dtype": {"type": "DT_INT32"}}}, {"name": "PartitionedCall/onnx_tf_prefix_p2o.BatchNormalization.5/mul", "op": "Const", "attr": {"value": {"tensor": {"dtype": "DT_FLOAT", "tensorShape": {"dim": [{"size": "1"}, {"size": "32"}, {"size": "1"}, {"size": "1"}]}}}, "dtype": {"type": "DT_FLOAT"}}}, {"name": "PartitionedCall/onnx_tf_prefix_p2o.BatchNormalization.5/sub", "op": "Const", "attr": {"value": {"tensor": {"dtype": "DT_FLOAT", "tensorShape": {"dim": [{"size": "1"}, {"size": "32"}, {"size": "1"}, {"size": "1"}]}}}, "dtype": {"type": "DT_FLOAT"}}}, {"name": "PartitionedCall/transpose_19/perm", "op": "Const", "attr": {"value": {"tensor": {"dtype": "DT_INT32", "tensorShape": {"dim": [{"size": "4"}]}}}, "dtype": {"type": "DT_INT32"}}}, {"name": "PartitionedCall/split_4", "op": "Const", "attr": {"value": {"tensor": {"dtype": "DT_FLOAT", "tensorShape": {"dim": [{"size": "1"}, {"size": "1"}, {"size": "32"}, {"size": "16"}]}}}, "dtype": {"type": "DT_FLOAT"}}}, {"name": "PartitionedCall/transpose_20/perm", "op": "Const", "attr": {"value": {"tensor": {"dtype": "DT_INT32", "tensorShape": {"dim": [{"size": "4"}]}}}, "dtype": {"type": "DT_INT32"}}}, {"name": "PartitionedCall/onnx_tf_prefix_p2o.BatchNormalization.6/mul", "op": "Const", "attr": {"value": {"tensor": {"dtype": "DT_FLOAT", "tensorShape": {"dim": [{"size": "1"}, {"size": "16"}, {"size": "1"}, {"size": "1"}]}}}, "dtype": {"type": "DT_FLOAT"}}}, {"name": "PartitionedCall/onnx_tf_prefix_p2o.BatchNormalization.6/sub", "op": "Const", "attr": {"value": {"tensor": {"dtype": "DT_FLOAT", "tensorShape": {"dim": [{"size": "1"}, {"size": "16"}, {"size": "1"}, {"size": "1"}]}}}, "dtype": {"type": "DT_FLOAT"}}}, {"name": "PartitionedCall/transpose_22/perm", "op": "Const", "attr": {"value": {"tensor": {"dtype": "DT_INT32", "tensorShape": {"dim": [{"size": "4"}]}}}, "dtype": {"type": "DT_INT32"}}}, {"name": "PartitionedCall/split_5", "op": "Const", "attr": {"value": {"tensor": {"dtype": "DT_FLOAT", "tensorShape": {"dim": [{"size": "1"}, {"size": "1"}, {"size": "16"}, {"size": "40"}]}}}, "dtype": {"type": "DT_FLOAT"}}}, {"name": "PartitionedCall/transpose_23/perm", "op": "Const", "attr": {"value": {"tensor": {"dtype": "DT_INT32", "tensorShape": {"dim": [{"size": "4"}]}}}, "dtype": {"type": "DT_INT32"}}}, {"name": "PartitionedCall/onnx_tf_prefix_p2o.BatchNormalization.7/mul", "op": "Const", "attr": {"value": {"tensor": {"dtype": "DT_FLOAT", "tensorShape": {"dim": [{"size": "1"}, {"size": "40"}, {"size": "1"}, {"size": "1"}]}}}, "dtype": {"type": "DT_FLOAT"}}}, {"name": "PartitionedCall/onnx_tf_prefix_p2o.BatchNormalization.7/sub", "op": "Const", "attr": {"value": {"tensor": {"dtype": "DT_FLOAT", "tensorShape": {"dim": [{"size": "1"}, {"size": "40"}, {"size": "1"}, {"size": "1"}]}}}, "dtype": {"type": "DT_FLOAT"}}}, {"name": "PartitionedCall/Const_5", "op": "Const", "attr": {"value": {"tensor": {"dtype": "DT_INT32", "tensorShape": {"dim": [{"size": "4"}, {"size": "2"}]}}}, "dtype": {"type": "DT_INT32"}}}, {"name": "PartitionedCall/transpose_25/perm", "op": "Const", "attr": {"value": {"tensor": {"dtype": "DT_INT32", "tensorShape": {"dim": [{"size": "4"}]}}}, "dtype": {"type": "DT_INT32"}}}, {"name": "PartitionedCall/Reshape_34", "op": "Const", "attr": {"value": {"tensor": {"dtype": "DT_FLOAT", "tensorShape": {"dim": [{"size": "3"}, {"size": "3"}, {"size": "40"}, {"size": "1"}]}}}, "dtype": {"type": "DT_FLOAT"}}}, {"name": "PartitionedCall/transpose_26/perm", "op": "Const", "attr": {"value": {"tensor": {"dtype": "DT_INT32", "tensorShape": {"dim": [{"size": "4"}]}}}, "dtype": {"type": "DT_INT32"}}}, {"name": "PartitionedCall/onnx_tf_prefix_p2o.BatchNormalization.8/mul", "op": "Const", "attr": {"value": {"tensor": {"dtype": "DT_FLOAT", "tensorShape": {"dim": [{"size": "1"}, {"size": "40"}, {"size": "1"}, {"size": "1"}]}}}, "dtype": {"type": "DT_FLOAT"}}}, {"name": "PartitionedCall/onnx_tf_prefix_p2o.BatchNormalization.8/sub", "op": "Const", "attr": {"value": {"tensor": {"dtype": "DT_FLOAT", "tensorShape": {"dim": [{"size": "1"}, {"size": "40"}, {"size": "1"}, {"size": "1"}]}}}, "dtype": {"type": "DT_FLOAT"}}}, {"name": "PartitionedCall/transpose_28/perm", "op": "Const", "attr": {"value": {"tensor": {"dtype": "DT_INT32", "tensorShape": {"dim": [{"size": "4"}]}}}, "dtype": {"type": "DT_INT32"}}}, {"name": "PartitionedCall/split_6", "op": "Const", "attr": {"value": {"tensor": {"dtype": "DT_FLOAT", "tensorShape": {"dim": [{"size": "1"}, {"size": "1"}, {"size": "40"}, {"size": "16"}]}}}, "dtype": {"type": "DT_FLOAT"}}}, {"name": "PartitionedCall/transpose_29/perm", "op": "Const", "attr": {"value": {"tensor": {"dtype": "DT_INT32", "tensorShape": {"dim": [{"size": "4"}]}}}, "dtype": {"type": "DT_INT32"}}}, {"name": "PartitionedCall/onnx_tf_prefix_p2o.BatchNormalization.9/mul", "op": "Const", "attr": {"value": {"tensor": {"dtype": "DT_FLOAT", "tensorShape": {"dim": [{"size": "1"}, {"size": "16"}, {"size": "1"}, {"size": "1"}]}}}, "dtype": {"type": "DT_FLOAT"}}}, {"name": "PartitionedCall/onnx_tf_prefix_p2o.BatchNormalization.9/sub", "op": "Const", "attr": {"value": {"tensor": {"dtype": "DT_FLOAT", "tensorShape": {"dim": [{"size": "1"}, {"size": "16"}, {"size": "1"}, {"size": "1"}]}}}, "dtype": {"type": "DT_FLOAT"}}}, {"name": "PartitionedCall/transpose_31/perm", "op": "Const", "attr": {"value": {"tensor": {"dtype": "DT_INT32", "tensorShape": {"dim": [{"size": "4"}]}}}, "dtype": {"type": "DT_INT32"}}}, {"name": "PartitionedCall/split_7", "op": "Const", "attr": {"value": {"tensor": {"dtype": "DT_FLOAT", "tensorShape": {"dim": [{"size": "1"}, {"size": "1"}, {"size": "16"}, {"size": "40"}]}}}, "dtype": {"type": "DT_FLOAT"}}}, {"name": "PartitionedCall/transpose_32/perm", "op": "Const", "attr": {"value": {"tensor": {"dtype": "DT_INT32", "tensorShape": {"dim": [{"size": "4"}]}}}, "dtype": {"type": "DT_INT32"}}}, {"name": "PartitionedCall/onnx_tf_prefix_p2o.BatchNormalization.10/mul", "op": "Const", "attr": {"value": {"tensor": {"dtype": "DT_FLOAT", "tensorShape": {"dim": [{"size": "1"}, {"size": "40"}, {"size": "1"}, {"size": "1"}]}}}, "dtype": {"type": "DT_FLOAT"}}}, {"name": "PartitionedCall/onnx_tf_prefix_p2o.BatchNormalization.10/sub", "op": "Const", "attr": {"value": {"tensor": {"dtype": "DT_FLOAT", "tensorShape": {"dim": [{"size": "1"}, {"size": "40"}, {"size": "1"}, {"size": "1"}]}}}, "dtype": {"type": "DT_FLOAT"}}}, {"name": "PartitionedCall/Const_6", "op": "Const", "attr": {"value": {"tensor": {"dtype": "DT_INT32", "tensorShape": {"dim": [{"size": "4"}, {"size": "2"}]}}}, "dtype": {"type": "DT_INT32"}}}, {"name": "PartitionedCall/transpose_40/perm", "op": "Const", "attr": {"value": {"tensor": {"dtype": "DT_INT32", "tensorShape": {"dim": [{"size": "4"}]}}}, "dtype": {"type": "DT_INT32"}}}, {"name": "PartitionedCall/Reshape_47", "op": "Const", "attr": {"value": {"tensor": {"dtype": "DT_FLOAT", "tensorShape": {"dim": [{"size": "5"}, {"size": "5"}, {"size": "40"}, {"size": "1"}]}}}, "dtype": {"type": "DT_FLOAT"}}}, {"name": "PartitionedCall/transpose_41/perm", "op": "Const", "attr": {"value": {"tensor": {"dtype": "DT_INT32", "tensorShape": {"dim": [{"size": "4"}]}}}, "dtype": {"type": "DT_INT32"}}}, {"name": "PartitionedCall/onnx_tf_prefix_p2o.BatchNormalization.11/mul", "op": "Const", "attr": {"value": {"tensor": {"dtype": "DT_FLOAT", "tensorShape": {"dim": [{"size": "1"}, {"size": "40"}, {"size": "1"}, {"size": "1"}]}}}, "dtype": {"type": "DT_FLOAT"}}}, {"name": "PartitionedCall/onnx_tf_prefix_p2o.BatchNormalization.11/sub", "op": "Const", "attr": {"value": {"tensor": {"dtype": "DT_FLOAT", "tensorShape": {"dim": [{"size": "1"}, {"size": "40"}, {"size": "1"}, {"size": "1"}]}}}, "dtype": {"type": "DT_FLOAT"}}}, {"name": "PartitionedCall/transpose_46/perm", "op": "Const", "attr": {"value": {"tensor": {"dtype": "DT_INT32", "tensorShape": {"dim": [{"size": "4"}]}}}, "dtype": {"type": "DT_INT32"}}}, {"name": "PartitionedCall/split_12", "op": "Const", "attr": {"value": {"tensor": {"dtype": "DT_FLOAT", "tensorShape": {"dim": [{"size": "1"}, {"size": "1"}, {"size": "40"}, {"size": "24"}]}}}, "dtype": {"type": "DT_FLOAT"}}}, {"name": "PartitionedCall/transpose_47/perm", "op": "Const", "attr": {"value": {"tensor": {"dtype": "DT_INT32", "tensorShape": {"dim": [{"size": "4"}]}}}, "dtype": {"type": "DT_INT32"}}}, {"name": "PartitionedCall/onnx_tf_prefix_p2o.BatchNormalization.12/mul", "op": "Const", "attr": {"value": {"tensor": {"dtype": "DT_FLOAT", "tensorShape": {"dim": [{"size": "1"}, {"size": "24"}, {"size": "1"}, {"size": "1"}]}}}, "dtype": {"type": "DT_FLOAT"}}}, {"name": "PartitionedCall/onnx_tf_prefix_p2o.BatchNormalization.12/sub", "op": "Const", "attr": {"value": {"tensor": {"dtype": "DT_FLOAT", "tensorShape": {"dim": [{"size": "1"}, {"size": "24"}, {"size": "1"}, {"size": "1"}]}}}, "dtype": {"type": "DT_FLOAT"}}}, {"name": "PartitionedCall/transpose_49/perm", "op": "Const", "attr": {"value": {"tensor": {"dtype": "DT_INT32", "tensorShape": {"dim": [{"size": "4"}]}}}, "dtype": {"type": "DT_INT32"}}}, {"name": "PartitionedCall/split_13", "op": "Const", "attr": {"value": {"tensor": {"dtype": "DT_FLOAT", "tensorShape": {"dim": [{"size": "1"}, {"size": "1"}, {"size": "24"}, {"size": "64"}]}}}, "dtype": {"type": "DT_FLOAT"}}}, {"name": "PartitionedCall/transpose_50/perm", "op": "Const", "attr": {"value": {"tensor": {"dtype": "DT_INT32", "tensorShape": {"dim": [{"size": "4"}]}}}, "dtype": {"type": "DT_INT32"}}}, {"name": "PartitionedCall/onnx_tf_prefix_p2o.BatchNormalization.13/mul", "op": "Const", "attr": {"value": {"tensor": {"dtype": "DT_FLOAT", "tensorShape": {"dim": [{"size": "1"}, {"size": "64"}, {"size": "1"}, {"size": "1"}]}}}, "dtype": {"type": "DT_FLOAT"}}}, {"name": "PartitionedCall/onnx_tf_prefix_p2o.BatchNormalization.13/sub", "op": "Const", "attr": {"value": {"tensor": {"dtype": "DT_FLOAT", "tensorShape": {"dim": [{"size": "1"}, {"size": "64"}, {"size": "1"}, {"size": "1"}]}}}, "dtype": {"type": "DT_FLOAT"}}}, {"name": "PartitionedCall/Const_7", "op": "Const", "attr": {"value": {"tensor": {"dtype": "DT_INT32", "tensorShape": {"dim": [{"size": "4"}, {"size": "2"}]}}}, "dtype": {"type": "DT_INT32"}}}, {"name": "PartitionedCall/transpose_52/perm", "op": "Const", "attr": {"value": {"tensor": {"dtype": "DT_INT32", "tensorShape": {"dim": [{"size": "4"}]}}}, "dtype": {"type": "DT_INT32"}}}, {"name": "PartitionedCall/Reshape_60", "op": "Const", "attr": {"value": {"tensor": {"dtype": "DT_FLOAT", "tensorShape": {"dim": [{"size": "5"}, {"size": "5"}, {"size": "64"}, {"size": "1"}]}}}, "dtype": {"type": "DT_FLOAT"}}}, {"name": "PartitionedCall/transpose_53/perm", "op": "Const", "attr": {"value": {"tensor": {"dtype": "DT_INT32", "tensorShape": {"dim": [{"size": "4"}]}}}, "dtype": {"type": "DT_INT32"}}}, {"name": "PartitionedCall/onnx_tf_prefix_p2o.BatchNormalization.14/mul", "op": "Const", "attr": {"value": {"tensor": {"dtype": "DT_FLOAT", "tensorShape": {"dim": [{"size": "1"}, {"size": "64"}, {"size": "1"}, {"size": "1"}]}}}, "dtype": {"type": "DT_FLOAT"}}}, {"name": "PartitionedCall/onnx_tf_prefix_p2o.BatchNormalization.14/sub", "op": "Const", "attr": {"value": {"tensor": {"dtype": "DT_FLOAT", "tensorShape": {"dim": [{"size": "1"}, {"size": "64"}, {"size": "1"}, {"size": "1"}]}}}, "dtype": {"type": "DT_FLOAT"}}}, {"name": "PartitionedCall/transpose_55/perm", "op": "Const", "attr": {"value": {"tensor": {"dtype": "DT_INT32", "tensorShape": {"dim": [{"size": "4"}]}}}, "dtype": {"type": "DT_INT32"}}}, {"name": "PartitionedCall/split_14", "op": "Const", "attr": {"value": {"tensor": {"dtype": "DT_FLOAT", "tensorShape": {"dim": [{"size": "1"}, {"size": "1"}, {"size": "64"}, {"size": "24"}]}}}, "dtype": {"type": "DT_FLOAT"}}}, {"name": "PartitionedCall/transpose_56/perm", "op": "Const", "attr": {"value": {"tensor": {"dtype": "DT_INT32", "tensorShape": {"dim": [{"size": "4"}]}}}, "dtype": {"type": "DT_INT32"}}}, {"name": "PartitionedCall/onnx_tf_prefix_p2o.BatchNormalization.15/mul", "op": "Const", "attr": {"value": {"tensor": {"dtype": "DT_FLOAT", "tensorShape": {"dim": [{"size": "1"}, {"size": "24"}, {"size": "1"}, {"size": "1"}]}}}, "dtype": {"type": "DT_FLOAT"}}}, {"name": "PartitionedCall/onnx_tf_prefix_p2o.BatchNormalization.15/sub", "op": "Const", "attr": {"value": {"tensor": {"dtype": "DT_FLOAT", "tensorShape": {"dim": [{"size": "1"}, {"size": "24"}, {"size": "1"}, {"size": "1"}]}}}, "dtype": {"type": "DT_FLOAT"}}}, {"name": "PartitionedCall/transpose_58/perm", "op": "Const", "attr": {"value": {"tensor": {"dtype": "DT_INT32", "tensorShape": {"dim": [{"size": "4"}]}}}, "dtype": {"type": "DT_INT32"}}}, {"name": "PartitionedCall/split_15", "op": "Const", "attr": {"value": {"tensor": {"dtype": "DT_FLOAT", "tensorShape": {"dim": [{"size": "1"}, {"size": "1"}, {"size": "24"}, {"size": "64"}]}}}, "dtype": {"type": "DT_FLOAT"}}}, {"name": "PartitionedCall/transpose_59/perm", "op": "Const", "attr": {"value": {"tensor": {"dtype": "DT_INT32", "tensorShape": {"dim": [{"size": "4"}]}}}, "dtype": {"type": "DT_INT32"}}}, {"name": "PartitionedCall/onnx_tf_prefix_p2o.BatchNormalization.16/mul", "op": "Const", "attr": {"value": {"tensor": {"dtype": "DT_FLOAT", "tensorShape": {"dim": [{"size": "1"}, {"size": "64"}, {"size": "1"}, {"size": "1"}]}}}, "dtype": {"type": "DT_FLOAT"}}}, {"name": "PartitionedCall/onnx_tf_prefix_p2o.BatchNormalization.16/sub", "op": "Const", "attr": {"value": {"tensor": {"dtype": "DT_FLOAT", "tensorShape": {"dim": [{"size": "1"}, {"size": "64"}, {"size": "1"}, {"size": "1"}]}}}, "dtype": {"type": "DT_FLOAT"}}}, {"name": "PartitionedCall/Const_8", "op": "Const", "attr": {"value": {"tensor": {"dtype": "DT_INT32", "tensorShape": {"dim": [{"size": "4"}, {"size": "2"}]}}}, "dtype": {"type": "DT_INT32"}}}, {"name": "PartitionedCall/transpose_61/perm", "op": "Const", "attr": {"value": {"tensor": {"dtype": "DT_INT32", "tensorShape": {"dim": [{"size": "4"}]}}}, "dtype": {"type": "DT_INT32"}}}, {"name": "PartitionedCall/Reshape_73", "op": "Const", "attr": {"value": {"tensor": {"dtype": "DT_FLOAT", "tensorShape": {"dim": [{"size": "5"}, {"size": "5"}, {"size": "64"}, {"size": "1"}]}}}, "dtype": {"type": "DT_FLOAT"}}}, {"name": "PartitionedCall/transpose_62/perm", "op": "Const", "attr": {"value": {"tensor": {"dtype": "DT_INT32", "tensorShape": {"dim": [{"size": "4"}]}}}, "dtype": {"type": "DT_INT32"}}}, {"name": "PartitionedCall/onnx_tf_prefix_p2o.BatchNormalization.17/mul", "op": "Const", "attr": {"value": {"tensor": {"dtype": "DT_FLOAT", "tensorShape": {"dim": [{"size": "1"}, {"size": "64"}, {"size": "1"}, {"size": "1"}]}}}, "dtype": {"type": "DT_FLOAT"}}}, {"name": "PartitionedCall/onnx_tf_prefix_p2o.BatchNormalization.17/sub", "op": "Const", "attr": {"value": {"tensor": {"dtype": "DT_FLOAT", "tensorShape": {"dim": [{"size": "1"}, {"size": "64"}, {"size": "1"}, {"size": "1"}]}}}, "dtype": {"type": "DT_FLOAT"}}}, {"name": "PartitionedCall/transpose_64/perm", "op": "Const", "attr": {"value": {"tensor": {"dtype": "DT_INT32", "tensorShape": {"dim": [{"size": "4"}]}}}, "dtype": {"type": "DT_INT32"}}}, {"name": "PartitionedCall/split_16", "op": "Const", "attr": {"value": {"tensor": {"dtype": "DT_FLOAT", "tensorShape": {"dim": [{"size": "1"}, {"size": "1"}, {"size": "64"}, {"size": "24"}]}}}, "dtype": {"type": "DT_FLOAT"}}}, {"name": "PartitionedCall/transpose_65/perm", "op": "Const", "attr": {"value": {"tensor": {"dtype": "DT_INT32", "tensorShape": {"dim": [{"size": "4"}]}}}, "dtype": {"type": "DT_INT32"}}}, {"name": "PartitionedCall/onnx_tf_prefix_p2o.BatchNormalization.18/mul", "op": "Const", "attr": {"value": {"tensor": {"dtype": "DT_FLOAT", "tensorShape": {"dim": [{"size": "1"}, {"size": "24"}, {"size": "1"}, {"size": "1"}]}}}, "dtype": {"type": "DT_FLOAT"}}}, {"name": "PartitionedCall/onnx_tf_prefix_p2o.BatchNormalization.18/sub", "op": "Const", "attr": {"value": {"tensor": {"dtype": "DT_FLOAT", "tensorShape": {"dim": [{"size": "1"}, {"size": "24"}, {"size": "1"}, {"size": "1"}]}}}, "dtype": {"type": "DT_FLOAT"}}}, {"name": "PartitionedCall/transpose_67/perm", "op": "Const", "attr": {"value": {"tensor": {"dtype": "DT_INT32", "tensorShape": {"dim": [{"size": "4"}]}}}, "dtype": {"type": "DT_INT32"}}}, {"name": "PartitionedCall/split_17", "op": "Const", "attr": {"value": {"tensor": {"dtype": "DT_FLOAT", "tensorShape": {"dim": [{"size": "1"}, {"size": "1"}, {"size": "24"}, {"size": "120"}]}}}, "dtype": {"type": "DT_FLOAT"}}}, {"name": "PartitionedCall/transpose_68/perm", "op": "Const", "attr": {"value": {"tensor": {"dtype": "DT_INT32", "tensorShape": {"dim": [{"size": "4"}]}}}, "dtype": {"type": "DT_INT32"}}}, {"name": "PartitionedCall/onnx_tf_prefix_p2o.BatchNormalization.19/mul", "op": "Const", "attr": {"value": {"tensor": {"dtype": "DT_FLOAT", "tensorShape": {"dim": [{"size": "1"}, {"size": "120"}, {"size": "1"}, {"size": "1"}]}}}, "dtype": {"type": "DT_FLOAT"}}}, {"name": "PartitionedCall/onnx_tf_prefix_p2o.BatchNormalization.19/sub", "op": "Const", "attr": {"value": {"tensor": {"dtype": "DT_FLOAT", "tensorShape": {"dim": [{"size": "1"}, {"size": "120"}, {"size": "1"}, {"size": "1"}]}}}, "dtype": {"type": "DT_FLOAT"}}}, {"name": "PartitionedCall/add_4/y", "op": "Const", "attr": {"value": {"tensor": {"dtype": "DT_FLOAT", "tensorShape": {}}}, "dtype": {"type": "DT_FLOAT"}}}, {"name": "PartitionedCall/Const_11", "op": "Const", "attr": {"value": {"tensor": {"dtype": "DT_INT32", "tensorShape": {"dim": [{"size": "4"}, {"size": "2"}]}}}, "dtype": {"type": "DT_INT32"}}}, {"name": "PartitionedCall/transpose_76/perm", "op": "Const", "attr": {"value": {"tensor": {"dtype": "DT_INT32", "tensorShape": {"dim": [{"size": "4"}]}}}, "dtype": {"type": "DT_INT32"}}}, {"name": "PartitionedCall/Reshape_86", "op": "Const", "attr": {"value": {"tensor": {"dtype": "DT_FLOAT", "tensorShape": {"dim": [{"size": "3"}, {"size": "3"}, {"size": "120"}, {"size": "1"}]}}}, "dtype": {"type": "DT_FLOAT"}}}, {"name": "PartitionedCall/transpose_77/perm", "op": "Const", "attr": {"value": {"tensor": {"dtype": "DT_INT32", "tensorShape": {"dim": [{"size": "4"}]}}}, "dtype": {"type": "DT_INT32"}}}, {"name": "PartitionedCall/onnx_tf_prefix_p2o.BatchNormalization.20/mul", "op": "Const", "attr": {"value": {"tensor": {"dtype": "DT_FLOAT", "tensorShape": {"dim": [{"size": "1"}, {"size": "120"}, {"size": "1"}, {"size": "1"}]}}}, "dtype": {"type": "DT_FLOAT"}}}, {"name": "PartitionedCall/onnx_tf_prefix_p2o.BatchNormalization.20/sub", "op": "Const", "attr": {"value": {"tensor": {"dtype": "DT_FLOAT", "tensorShape": {"dim": [{"size": "1"}, {"size": "120"}, {"size": "1"}, {"size": "1"}]}}}, "dtype": {"type": "DT_FLOAT"}}}, {"name": "PartitionedCall/add_7/y", "op": "Const", "attr": {"value": {"tensor": {"dtype": "DT_FLOAT", "tensorShape": {}}}, "dtype": {"type": "DT_FLOAT"}}}, {"name": "PartitionedCall/transpose_82/perm", "op": "Const", "attr": {"value": {"tensor": {"dtype": "DT_INT32", "tensorShape": {"dim": [{"size": "4"}]}}}, "dtype": {"type": "DT_INT32"}}}, {"name": "PartitionedCall/split_22", "op": "Const", "attr": {"value": {"tensor": {"dtype": "DT_FLOAT", "tensorShape": {"dim": [{"size": "1"}, {"size": "1"}, {"size": "120"}, {"size": "40"}]}}}, "dtype": {"type": "DT_FLOAT"}}}, {"name": "PartitionedCall/transpose_83/perm", "op": "Const", "attr": {"value": {"tensor": {"dtype": "DT_INT32", "tensorShape": {"dim": [{"size": "4"}]}}}, "dtype": {"type": "DT_INT32"}}}, {"name": "PartitionedCall/onnx_tf_prefix_p2o.BatchNormalization.21/mul", "op": "Const", "attr": {"value": {"tensor": {"dtype": "DT_FLOAT", "tensorShape": {"dim": [{"size": "1"}, {"size": "40"}, {"size": "1"}, {"size": "1"}]}}}, "dtype": {"type": "DT_FLOAT"}}}, {"name": "PartitionedCall/onnx_tf_prefix_p2o.BatchNormalization.21/sub", "op": "Const", "attr": {"value": {"tensor": {"dtype": "DT_FLOAT", "tensorShape": {"dim": [{"size": "1"}, {"size": "40"}, {"size": "1"}, {"size": "1"}]}}}, "dtype": {"type": "DT_FLOAT"}}}, {"name": "PartitionedCall/transpose_85/perm", "op": "Const", "attr": {"value": {"tensor": {"dtype": "DT_INT32", "tensorShape": {"dim": [{"size": "4"}]}}}, "dtype": {"type": "DT_INT32"}}}, {"name": "PartitionedCall/split_23", "op": "Const", "attr": {"value": {"tensor": {"dtype": "DT_FLOAT", "tensorShape": {"dim": [{"size": "1"}, {"size": "1"}, {"size": "40"}, {"size": "104"}]}}}, "dtype": {"type": "DT_FLOAT"}}}, {"name": "PartitionedCall/transpose_86/perm", "op": "Const", "attr": {"value": {"tensor": {"dtype": "DT_INT32", "tensorShape": {"dim": [{"size": "4"}]}}}, "dtype": {"type": "DT_INT32"}}}, {"name": "PartitionedCall/onnx_tf_prefix_p2o.BatchNormalization.22/mul", "op": "Const", "attr": {"value": {"tensor": {"dtype": "DT_FLOAT", "tensorShape": {"dim": [{"size": "1"}, {"size": "104"}, {"size": "1"}, {"size": "1"}]}}}, "dtype": {"type": "DT_FLOAT"}}}, {"name": "PartitionedCall/onnx_tf_prefix_p2o.BatchNormalization.22/sub", "op": "Const", "attr": {"value": {"tensor": {"dtype": "DT_FLOAT", "tensorShape": {"dim": [{"size": "1"}, {"size": "104"}, {"size": "1"}, {"size": "1"}]}}}, "dtype": {"type": "DT_FLOAT"}}}, {"name": "PartitionedCall/add_9/y", "op": "Const", "attr": {"value": {"tensor": {"dtype": "DT_FLOAT", "tensorShape": {}}}, "dtype": {"type": "DT_FLOAT"}}}, {"name": "PartitionedCall/Const_16", "op": "Const", "attr": {"value": {"tensor": {"dtype": "DT_INT32", "tensorShape": {"dim": [{"size": "4"}, {"size": "2"}]}}}, "dtype": {"type": "DT_INT32"}}}, {"name": "PartitionedCall/transpose_88/perm", "op": "Const", "attr": {"value": {"tensor": {"dtype": "DT_INT32", "tensorShape": {"dim": [{"size": "4"}]}}}, "dtype": {"type": "DT_INT32"}}}, {"name": "PartitionedCall/Reshape_99", "op": "Const", "attr": {"value": {"tensor": {"dtype": "DT_FLOAT", "tensorShape": {"dim": [{"size": "3"}, {"size": "3"}, {"size": "104"}, {"size": "1"}]}}}, "dtype": {"type": "DT_FLOAT"}}}, {"name": "PartitionedCall/transpose_89/perm", "op": "Const", "attr": {"value": {"tensor": {"dtype": "DT_INT32", "tensorShape": {"dim": [{"size": "4"}]}}}, "dtype": {"type": "DT_INT32"}}}, {"name": "PartitionedCall/onnx_tf_prefix_p2o.BatchNormalization.23/mul", "op": "Const", "attr": {"value": {"tensor": {"dtype": "DT_FLOAT", "tensorShape": {"dim": [{"size": "1"}, {"size": "104"}, {"size": "1"}, {"size": "1"}]}}}, "dtype": {"type": "DT_FLOAT"}}}, {"name": "PartitionedCall/onnx_tf_prefix_p2o.BatchNormalization.23/sub", "op": "Const", "attr": {"value": {"tensor": {"dtype": "DT_FLOAT", "tensorShape": {"dim": [{"size": "1"}, {"size": "104"}, {"size": "1"}, {"size": "1"}]}}}, "dtype": {"type": "DT_FLOAT"}}}, {"name": "PartitionedCall/add_10/y", "op": "Const", "attr": {"value": {"tensor": {"dtype": "DT_FLOAT", "tensorShape": {}}}, "dtype": {"type": "DT_FLOAT"}}}, {"name": "PartitionedCall/transpose_91/perm", "op": "Const", "attr": {"value": {"tensor": {"dtype": "DT_INT32", "tensorShape": {"dim": [{"size": "4"}]}}}, "dtype": {"type": "DT_INT32"}}}, {"name": "PartitionedCall/split_24", "op": "Const", "attr": {"value": {"tensor": {"dtype": "DT_FLOAT", "tensorShape": {"dim": [{"size": "1"}, {"size": "1"}, {"size": "104"}, {"size": "40"}]}}}, "dtype": {"type": "DT_FLOAT"}}}, {"name": "PartitionedCall/transpose_92/perm", "op": "Const", "attr": {"value": {"tensor": {"dtype": "DT_INT32", "tensorShape": {"dim": [{"size": "4"}]}}}, "dtype": {"type": "DT_INT32"}}}, {"name": "PartitionedCall/onnx_tf_prefix_p2o.BatchNormalization.24/mul", "op": "Const", "attr": {"value": {"tensor": {"dtype": "DT_FLOAT", "tensorShape": {"dim": [{"size": "1"}, {"size": "40"}, {"size": "1"}, {"size": "1"}]}}}, "dtype": {"type": "DT_FLOAT"}}}, {"name": "PartitionedCall/onnx_tf_prefix_p2o.BatchNormalization.24/sub", "op": "Const", "attr": {"value": {"tensor": {"dtype": "DT_FLOAT", "tensorShape": {"dim": [{"size": "1"}, {"size": "40"}, {"size": "1"}, {"size": "1"}]}}}, "dtype": {"type": "DT_FLOAT"}}}, {"name": "PartitionedCall/transpose_94/perm", "op": "Const", "attr": {"value": {"tensor": {"dtype": "DT_INT32", "tensorShape": {"dim": [{"size": "4"}]}}}, "dtype": {"type": "DT_INT32"}}}, {"name": "PartitionedCall/split_25", "op": "Const", "attr": {"value": {"tensor": {"dtype": "DT_FLOAT", "tensorShape": {"dim": [{"size": "1"}, {"size": "1"}, {"size": "40"}, {"size": "96"}]}}}, "dtype": {"type": "DT_FLOAT"}}}, {"name": "PartitionedCall/transpose_95/perm", "op": "Const", "attr": {"value": {"tensor": {"dtype": "DT_INT32", "tensorShape": {"dim": [{"size": "4"}]}}}, "dtype": {"type": "DT_INT32"}}}, {"name": "PartitionedCall/onnx_tf_prefix_p2o.BatchNormalization.25/mul", "op": "Const", "attr": {"value": {"tensor": {"dtype": "DT_FLOAT", "tensorShape": {"dim": [{"size": "1"}, {"size": "96"}, {"size": "1"}, {"size": "1"}]}}}, "dtype": {"type": "DT_FLOAT"}}}, {"name": "PartitionedCall/onnx_tf_prefix_p2o.BatchNormalization.25/sub", "op": "Const", "attr": {"value": {"tensor": {"dtype": "DT_FLOAT", "tensorShape": {"dim": [{"size": "1"}, {"size": "96"}, {"size": "1"}, {"size": "1"}]}}}, "dtype": {"type": "DT_FLOAT"}}}, {"name": "PartitionedCall/add_11/y", "op": "Const", "attr": {"value": {"tensor": {"dtype": "DT_FLOAT", "tensorShape": {}}}, "dtype": {"type": "DT_FLOAT"}}}, {"name": "PartitionedCall/Const_21", "op": "Const", "attr": {"value": {"tensor": {"dtype": "DT_INT32", "tensorShape": {"dim": [{"size": "4"}, {"size": "2"}]}}}, "dtype": {"type": "DT_INT32"}}}, {"name": "PartitionedCall/transpose_97/perm", "op": "Const", "attr": {"value": {"tensor": {"dtype": "DT_INT32", "tensorShape": {"dim": [{"size": "4"}]}}}, "dtype": {"type": "DT_INT32"}}}, {"name": "PartitionedCall/Reshape_112", "op": "Const", "attr": {"value": {"tensor": {"dtype": "DT_FLOAT", "tensorShape": {"dim": [{"size": "3"}, {"size": "3"}, {"size": "96"}, {"size": "1"}]}}}, "dtype": {"type": "DT_FLOAT"}}}, {"name": "PartitionedCall/transpose_98/perm", "op": "Const", "attr": {"value": {"tensor": {"dtype": "DT_INT32", "tensorShape": {"dim": [{"size": "4"}]}}}, "dtype": {"type": "DT_INT32"}}}, {"name": "PartitionedCall/onnx_tf_prefix_p2o.BatchNormalization.26/mul", "op": "Const", "attr": {"value": {"tensor": {"dtype": "DT_FLOAT", "tensorShape": {"dim": [{"size": "1"}, {"size": "96"}, {"size": "1"}, {"size": "1"}]}}}, "dtype": {"type": "DT_FLOAT"}}}, {"name": "PartitionedCall/onnx_tf_prefix_p2o.BatchNormalization.26/sub", "op": "Const", "attr": {"value": {"tensor": {"dtype": "DT_FLOAT", "tensorShape": {"dim": [{"size": "1"}, {"size": "96"}, {"size": "1"}, {"size": "1"}]}}}, "dtype": {"type": "DT_FLOAT"}}}, {"name": "PartitionedCall/add_12/y", "op": "Const", "attr": {"value": {"tensor": {"dtype": "DT_FLOAT", "tensorShape": {}}}, "dtype": {"type": "DT_FLOAT"}}}, {"name": "PartitionedCall/transpose_100/perm", "op": "Const", "attr": {"value": {"tensor": {"dtype": "DT_INT32", "tensorShape": {"dim": [{"size": "4"}]}}}, "dtype": {"type": "DT_INT32"}}}, {"name": "PartitionedCall/split_26", "op": "Const", "attr": {"value": {"tensor": {"dtype": "DT_FLOAT", "tensorShape": {"dim": [{"size": "1"}, {"size": "1"}, {"size": "96"}, {"size": "40"}]}}}, "dtype": {"type": "DT_FLOAT"}}}, {"name": "PartitionedCall/transpose_101/perm", "op": "Const", "attr": {"value": {"tensor": {"dtype": "DT_INT32", "tensorShape": {"dim": [{"size": "4"}]}}}, "dtype": {"type": "DT_INT32"}}}, {"name": "PartitionedCall/onnx_tf_prefix_p2o.BatchNormalization.27/mul", "op": "Const", "attr": {"value": {"tensor": {"dtype": "DT_FLOAT", "tensorShape": {"dim": [{"size": "1"}, {"size": "40"}, {"size": "1"}, {"size": "1"}]}}}, "dtype": {"type": "DT_FLOAT"}}}, {"name": "PartitionedCall/onnx_tf_prefix_p2o.BatchNormalization.27/sub", "op": "Const", "attr": {"value": {"tensor": {"dtype": "DT_FLOAT", "tensorShape": {"dim": [{"size": "1"}, {"size": "40"}, {"size": "1"}, {"size": "1"}]}}}, "dtype": {"type": "DT_FLOAT"}}}, {"name": "PartitionedCall/transpose_103/perm", "op": "Const", "attr": {"value": {"tensor": {"dtype": "DT_INT32", "tensorShape": {"dim": [{"size": "4"}]}}}, "dtype": {"type": "DT_INT32"}}}, {"name": "PartitionedCall/split_27", "op": "Const", "attr": {"value": {"tensor": {"dtype": "DT_FLOAT", "tensorShape": {"dim": [{"size": "1"}, {"size": "1"}, {"size": "40"}, {"size": "96"}]}}}, "dtype": {"type": "DT_FLOAT"}}}, {"name": "PartitionedCall/transpose_104/perm", "op": "Const", "attr": {"value": {"tensor": {"dtype": "DT_INT32", "tensorShape": {"dim": [{"size": "4"}]}}}, "dtype": {"type": "DT_INT32"}}}, {"name": "PartitionedCall/onnx_tf_prefix_p2o.BatchNormalization.28/mul", "op": "Const", "attr": {"value": {"tensor": {"dtype": "DT_FLOAT", "tensorShape": {"dim": [{"size": "1"}, {"size": "96"}, {"size": "1"}, {"size": "1"}]}}}, "dtype": {"type": "DT_FLOAT"}}}, {"name": "PartitionedCall/onnx_tf_prefix_p2o.BatchNormalization.28/sub", "op": "Const", "attr": {"value": {"tensor": {"dtype": "DT_FLOAT", "tensorShape": {"dim": [{"size": "1"}, {"size": "96"}, {"size": "1"}, {"size": "1"}]}}}, "dtype": {"type": "DT_FLOAT"}}}, {"name": "PartitionedCall/add_13/y", "op": "Const", "attr": {"value": {"tensor": {"dtype": "DT_FLOAT", "tensorShape": {}}}, "dtype": {"type": "DT_FLOAT"}}}, {"name": "PartitionedCall/Const_26", "op": "Const", "attr": {"value": {"tensor": {"dtype": "DT_INT32", "tensorShape": {"dim": [{"size": "4"}, {"size": "2"}]}}}, "dtype": {"type": "DT_INT32"}}}, {"name": "PartitionedCall/transpose_106/perm", "op": "Const", "attr": {"value": {"tensor": {"dtype": "DT_INT32", "tensorShape": {"dim": [{"size": "4"}]}}}, "dtype": {"type": "DT_INT32"}}}, {"name": "PartitionedCall/Reshape_125", "op": "Const", "attr": {"value": {"tensor": {"dtype": "DT_FLOAT", "tensorShape": {"dim": [{"size": "3"}, {"size": "3"}, {"size": "96"}, {"size": "1"}]}}}, "dtype": {"type": "DT_FLOAT"}}}, {"name": "PartitionedCall/transpose_107/perm", "op": "Const", "attr": {"value": {"tensor": {"dtype": "DT_INT32", "tensorShape": {"dim": [{"size": "4"}]}}}, "dtype": {"type": "DT_INT32"}}}, {"name": "PartitionedCall/onnx_tf_prefix_p2o.BatchNormalization.29/mul", "op": "Const", "attr": {"value": {"tensor": {"dtype": "DT_FLOAT", "tensorShape": {"dim": [{"size": "1"}, {"size": "96"}, {"size": "1"}, {"size": "1"}]}}}, "dtype": {"type": "DT_FLOAT"}}}, {"name": "PartitionedCall/onnx_tf_prefix_p2o.BatchNormalization.29/sub", "op": "Const", "attr": {"value": {"tensor": {"dtype": "DT_FLOAT", "tensorShape": {"dim": [{"size": "1"}, {"size": "96"}, {"size": "1"}, {"size": "1"}]}}}, "dtype": {"type": "DT_FLOAT"}}}, {"name": "PartitionedCall/add_14/y", "op": "Const", "attr": {"value": {"tensor": {"dtype": "DT_FLOAT", "tensorShape": {}}}, "dtype": {"type": "DT_FLOAT"}}}, {"name": "PartitionedCall/transpose_109/perm", "op": "Const", "attr": {"value": {"tensor": {"dtype": "DT_INT32", "tensorShape": {"dim": [{"size": "4"}]}}}, "dtype": {"type": "DT_INT32"}}}, {"name": "PartitionedCall/split_28", "op": "Const", "attr": {"value": {"tensor": {"dtype": "DT_FLOAT", "tensorShape": {"dim": [{"size": "1"}, {"size": "1"}, {"size": "96"}, {"size": "40"}]}}}, "dtype": {"type": "DT_FLOAT"}}}, {"name": "PartitionedCall/transpose_110/perm", "op": "Const", "attr": {"value": {"tensor": {"dtype": "DT_INT32", "tensorShape": {"dim": [{"size": "4"}]}}}, "dtype": {"type": "DT_INT32"}}}, {"name": "PartitionedCall/onnx_tf_prefix_p2o.BatchNormalization.30/mul", "op": "Const", "attr": {"value": {"tensor": {"dtype": "DT_FLOAT", "tensorShape": {"dim": [{"size": "1"}, {"size": "40"}, {"size": "1"}, {"size": "1"}]}}}, "dtype": {"type": "DT_FLOAT"}}}, {"name": "PartitionedCall/onnx_tf_prefix_p2o.BatchNormalization.30/sub", "op": "Const", "attr": {"value": {"tensor": {"dtype": "DT_FLOAT", "tensorShape": {"dim": [{"size": "1"}, {"size": "40"}, {"size": "1"}, {"size": "1"}]}}}, "dtype": {"type": "DT_FLOAT"}}}, {"name": "PartitionedCall/transpose_112/perm", "op": "Const", "attr": {"value": {"tensor": {"dtype": "DT_INT32", "tensorShape": {"dim": [{"size": "4"}]}}}, "dtype": {"type": "DT_INT32"}}}, {"name": "PartitionedCall/split_29", "op": "Const", "attr": {"value": {"tensor": {"dtype": "DT_FLOAT", "tensorShape": {"dim": [{"size": "1"}, {"size": "1"}, {"size": "40"}, {"size": "240"}]}}}, "dtype": {"type": "DT_FLOAT"}}}, {"name": "PartitionedCall/transpose_113/perm", "op": "Const", "attr": {"value": {"tensor": {"dtype": "DT_INT32", "tensorShape": {"dim": [{"size": "4"}]}}}, "dtype": {"type": "DT_INT32"}}}, {"name": "PartitionedCall/onnx_tf_prefix_p2o.BatchNormalization.31/mul", "op": "Const", "attr": {"value": {"tensor": {"dtype": "DT_FLOAT", "tensorShape": {"dim": [{"size": "1"}, {"size": "240"}, {"size": "1"}, {"size": "1"}]}}}, "dtype": {"type": "DT_FLOAT"}}}, {"name": "PartitionedCall/onnx_tf_prefix_p2o.BatchNormalization.31/sub", "op": "Const", "attr": {"value": {"tensor": {"dtype": "DT_FLOAT", "tensorShape": {"dim": [{"size": "1"}, {"size": "240"}, {"size": "1"}, {"size": "1"}]}}}, "dtype": {"type": "DT_FLOAT"}}}, {"name": "PartitionedCall/add_15/y", "op": "Const", "attr": {"value": {"tensor": {"dtype": "DT_FLOAT", "tensorShape": {}}}, "dtype": {"type": "DT_FLOAT"}}}, {"name": "PartitionedCall/Const_31", "op": "Const", "attr": {"value": {"tensor": {"dtype": "DT_INT32", "tensorShape": {"dim": [{"size": "4"}, {"size": "2"}]}}}, "dtype": {"type": "DT_INT32"}}}, {"name": "PartitionedCall/transpose_115/perm", "op": "Const", "attr": {"value": {"tensor": {"dtype": "DT_INT32", "tensorShape": {"dim": [{"size": "4"}]}}}, "dtype": {"type": "DT_INT32"}}}, {"name": "PartitionedCall/Reshape_138", "op": "Const", "attr": {"value": {"tensor": {"dtype": "DT_FLOAT", "tensorShape": {"dim": [{"size": "3"}, {"size": "3"}, {"size": "240"}, {"size": "1"}]}}}, "dtype": {"type": "DT_FLOAT"}}}, {"name": "PartitionedCall/transpose_116/perm", "op": "Const", "attr": {"value": {"tensor": {"dtype": "DT_INT32", "tensorShape": {"dim": [{"size": "4"}]}}}, "dtype": {"type": "DT_INT32"}}}, {"name": "PartitionedCall/onnx_tf_prefix_p2o.BatchNormalization.32/mul", "op": "Const", "attr": {"value": {"tensor": {"dtype": "DT_FLOAT", "tensorShape": {"dim": [{"size": "1"}, {"size": "240"}, {"size": "1"}, {"size": "1"}]}}}, "dtype": {"type": "DT_FLOAT"}}}, {"name": "PartitionedCall/onnx_tf_prefix_p2o.BatchNormalization.32/sub", "op": "Const", "attr": {"value": {"tensor": {"dtype": "DT_FLOAT", "tensorShape": {"dim": [{"size": "1"}, {"size": "240"}, {"size": "1"}, {"size": "1"}]}}}, "dtype": {"type": "DT_FLOAT"}}}, {"name": "PartitionedCall/add_16/y", "op": "Const", "attr": {"value": {"tensor": {"dtype": "DT_FLOAT", "tensorShape": {}}}, "dtype": {"type": "DT_FLOAT"}}}, {"name": "PartitionedCall/transpose_118/perm", "op": "Const", "attr": {"value": {"tensor": {"dtype": "DT_INT32", "tensorShape": {"dim": [{"size": "4"}]}}}, "dtype": {"type": "DT_INT32"}}}, {"name": "PartitionedCall/split_30", "op": "Const", "attr": {"value": {"tensor": {"dtype": "DT_FLOAT", "tensorShape": {"dim": [{"size": "1"}, {"size": "1"}, {"size": "240"}, {"size": "56"}]}}}, "dtype": {"type": "DT_FLOAT"}}}, {"name": "PartitionedCall/transpose_119/perm", "op": "Const", "attr": {"value": {"tensor": {"dtype": "DT_INT32", "tensorShape": {"dim": [{"size": "4"}]}}}, "dtype": {"type": "DT_INT32"}}}, {"name": "PartitionedCall/onnx_tf_prefix_p2o.BatchNormalization.33/mul", "op": "Const", "attr": {"value": {"tensor": {"dtype": "DT_FLOAT", "tensorShape": {"dim": [{"size": "1"}, {"size": "56"}, {"size": "1"}, {"size": "1"}]}}}, "dtype": {"type": "DT_FLOAT"}}}, {"name": "PartitionedCall/onnx_tf_prefix_p2o.BatchNormalization.33/sub", "op": "Const", "attr": {"value": {"tensor": {"dtype": "DT_FLOAT", "tensorShape": {"dim": [{"size": "1"}, {"size": "56"}, {"size": "1"}, {"size": "1"}]}}}, "dtype": {"type": "DT_FLOAT"}}}, {"name": "PartitionedCall/transpose_121/perm", "op": "Const", "attr": {"value": {"tensor": {"dtype": "DT_INT32", "tensorShape": {"dim": [{"size": "4"}]}}}, "dtype": {"type": "DT_INT32"}}}, {"name": "PartitionedCall/split_31", "op": "Const", "attr": {"value": {"tensor": {"dtype": "DT_FLOAT", "tensorShape": {"dim": [{"size": "1"}, {"size": "1"}, {"size": "56"}, {"size": "336"}]}}}, "dtype": {"type": "DT_FLOAT"}}}, {"name": "PartitionedCall/transpose_122/perm", "op": "Const", "attr": {"value": {"tensor": {"dtype": "DT_INT32", "tensorShape": {"dim": [{"size": "4"}]}}}, "dtype": {"type": "DT_INT32"}}}, {"name": "PartitionedCall/onnx_tf_prefix_p2o.BatchNormalization.34/mul", "op": "Const", "attr": {"value": {"tensor": {"dtype": "DT_FLOAT", "tensorShape": {"dim": [{"size": "1"}, {"size": "336"}, {"size": "1"}, {"size": "1"}]}}}, "dtype": {"type": "DT_FLOAT"}}}, {"name": "PartitionedCall/onnx_tf_prefix_p2o.BatchNormalization.34/sub", "op": "Const", "attr": {"value": {"tensor": {"dtype": "DT_FLOAT", "tensorShape": {"dim": [{"size": "1"}, {"size": "336"}, {"size": "1"}, {"size": "1"}]}}}, "dtype": {"type": "DT_FLOAT"}}}, {"name": "PartitionedCall/add_17/y", "op": "Const", "attr": {"value": {"tensor": {"dtype": "DT_FLOAT", "tensorShape": {}}}, "dtype": {"type": "DT_FLOAT"}}}, {"name": "PartitionedCall/Const_36", "op": "Const", "attr": {"value": {"tensor": {"dtype": "DT_INT32", "tensorShape": {"dim": [{"size": "4"}, {"size": "2"}]}}}, "dtype": {"type": "DT_INT32"}}}, {"name": "PartitionedCall/transpose_124/perm", "op": "Const", "attr": {"value": {"tensor": {"dtype": "DT_INT32", "tensorShape": {"dim": [{"size": "4"}]}}}, "dtype": {"type": "DT_INT32"}}}, {"name": "PartitionedCall/Reshape_151", "op": "Const", "attr": {"value": {"tensor": {"dtype": "DT_FLOAT", "tensorShape": {"dim": [{"size": "3"}, {"size": "3"}, {"size": "336"}, {"size": "1"}]}}}, "dtype": {"type": "DT_FLOAT"}}}, {"name": "PartitionedCall/transpose_125/perm", "op": "Const", "attr": {"value": {"tensor": {"dtype": "DT_INT32", "tensorShape": {"dim": [{"size": "4"}]}}}, "dtype": {"type": "DT_INT32"}}}, {"name": "PartitionedCall/onnx_tf_prefix_p2o.BatchNormalization.35/mul", "op": "Const", "attr": {"value": {"tensor": {"dtype": "DT_FLOAT", "tensorShape": {"dim": [{"size": "1"}, {"size": "336"}, {"size": "1"}, {"size": "1"}]}}}, "dtype": {"type": "DT_FLOAT"}}}, {"name": "PartitionedCall/onnx_tf_prefix_p2o.BatchNormalization.35/sub", "op": "Const", "attr": {"value": {"tensor": {"dtype": "DT_FLOAT", "tensorShape": {"dim": [{"size": "1"}, {"size": "336"}, {"size": "1"}, {"size": "1"}]}}}, "dtype": {"type": "DT_FLOAT"}}}, {"name": "PartitionedCall/add_18/y", "op": "Const", "attr": {"value": {"tensor": {"dtype": "DT_FLOAT", "tensorShape": {}}}, "dtype": {"type": "DT_FLOAT"}}}, {"name": "PartitionedCall/transpose_127/perm", "op": "Const", "attr": {"value": {"tensor": {"dtype": "DT_INT32", "tensorShape": {"dim": [{"size": "4"}]}}}, "dtype": {"type": "DT_INT32"}}}, {"name": "PartitionedCall/split_32", "op": "Const", "attr": {"value": {"tensor": {"dtype": "DT_FLOAT", "tensorShape": {"dim": [{"size": "1"}, {"size": "1"}, {"size": "336"}, {"size": "56"}]}}}, "dtype": {"type": "DT_FLOAT"}}}, {"name": "PartitionedCall/transpose_128/perm", "op": "Const", "attr": {"value": {"tensor": {"dtype": "DT_INT32", "tensorShape": {"dim": [{"size": "4"}]}}}, "dtype": {"type": "DT_INT32"}}}, {"name": "PartitionedCall/onnx_tf_prefix_p2o.BatchNormalization.36/mul", "op": "Const", "attr": {"value": {"tensor": {"dtype": "DT_FLOAT", "tensorShape": {"dim": [{"size": "1"}, {"size": "56"}, {"size": "1"}, {"size": "1"}]}}}, "dtype": {"type": "DT_FLOAT"}}}, {"name": "PartitionedCall/onnx_tf_prefix_p2o.BatchNormalization.36/sub", "op": "Const", "attr": {"value": {"tensor": {"dtype": "DT_FLOAT", "tensorShape": {"dim": [{"size": "1"}, {"size": "56"}, {"size": "1"}, {"size": "1"}]}}}, "dtype": {"type": "DT_FLOAT"}}}, {"name": "PartitionedCall/transpose_130/perm", "op": "Const", "attr": {"value": {"tensor": {"dtype": "DT_INT32", "tensorShape": {"dim": [{"size": "4"}]}}}, "dtype": {"type": "DT_INT32"}}}, {"name": "PartitionedCall/split_33", "op": "Const", "attr": {"value": {"tensor": {"dtype": "DT_FLOAT", "tensorShape": {"dim": [{"size": "1"}, {"size": "1"}, {"size": "56"}, {"size": "336"}]}}}, "dtype": {"type": "DT_FLOAT"}}}, {"name": "PartitionedCall/transpose_131/perm", "op": "Const", "attr": {"value": {"tensor": {"dtype": "DT_INT32", "tensorShape": {"dim": [{"size": "4"}]}}}, "dtype": {"type": "DT_INT32"}}}, {"name": "PartitionedCall/onnx_tf_prefix_p2o.BatchNormalization.37/mul", "op": "Const", "attr": {"value": {"tensor": {"dtype": "DT_FLOAT", "tensorShape": {"dim": [{"size": "1"}, {"size": "336"}, {"size": "1"}, {"size": "1"}]}}}, "dtype": {"type": "DT_FLOAT"}}}, {"name": "PartitionedCall/onnx_tf_prefix_p2o.BatchNormalization.37/sub", "op": "Const", "attr": {"value": {"tensor": {"dtype": "DT_FLOAT", "tensorShape": {"dim": [{"size": "1"}, {"size": "336"}, {"size": "1"}, {"size": "1"}]}}}, "dtype": {"type": "DT_FLOAT"}}}, {"name": "PartitionedCall/add_19/y", "op": "Const", "attr": {"value": {"tensor": {"dtype": "DT_FLOAT", "tensorShape": {}}}, "dtype": {"type": "DT_FLOAT"}}}, {"name": "PartitionedCall/Const_41", "op": "Const", "attr": {"value": {"tensor": {"dtype": "DT_INT32", "tensorShape": {"dim": [{"size": "4"}, {"size": "2"}]}}}, "dtype": {"type": "DT_INT32"}}}, {"name": "PartitionedCall/transpose_139/perm", "op": "Const", "attr": {"value": {"tensor": {"dtype": "DT_INT32", "tensorShape": {"dim": [{"size": "4"}]}}}, "dtype": {"type": "DT_INT32"}}}, {"name": "PartitionedCall/Reshape_164", "op": "Const", "attr": {"value": {"tensor": {"dtype": "DT_FLOAT", "tensorShape": {"dim": [{"size": "5"}, {"size": "5"}, {"size": "336"}, {"size": "1"}]}}}, "dtype": {"type": "DT_FLOAT"}}}, {"name": "PartitionedCall/transpose_140/perm", "op": "Const", "attr": {"value": {"tensor": {"dtype": "DT_INT32", "tensorShape": {"dim": [{"size": "4"}]}}}, "dtype": {"type": "DT_INT32"}}}, {"name": "PartitionedCall/onnx_tf_prefix_p2o.BatchNormalization.38/mul", "op": "Const", "attr": {"value": {"tensor": {"dtype": "DT_FLOAT", "tensorShape": {"dim": [{"size": "1"}, {"size": "336"}, {"size": "1"}, {"size": "1"}]}}}, "dtype": {"type": "DT_FLOAT"}}}, {"name": "PartitionedCall/onnx_tf_prefix_p2o.BatchNormalization.38/sub", "op": "Const", "attr": {"value": {"tensor": {"dtype": "DT_FLOAT", "tensorShape": {"dim": [{"size": "1"}, {"size": "336"}, {"size": "1"}, {"size": "1"}]}}}, "dtype": {"type": "DT_FLOAT"}}}, {"name": "PartitionedCall/add_22/y", "op": "Const", "attr": {"value": {"tensor": {"dtype": "DT_FLOAT", "tensorShape": {}}}, "dtype": {"type": "DT_FLOAT"}}}, {"name": "PartitionedCall/transpose_145/perm", "op": "Const", "attr": {"value": {"tensor": {"dtype": "DT_INT32", "tensorShape": {"dim": [{"size": "4"}]}}}, "dtype": {"type": "DT_INT32"}}}, {"name": "PartitionedCall/split_38", "op": "Const", "attr": {"value": {"tensor": {"dtype": "DT_FLOAT", "tensorShape": {"dim": [{"size": "1"}, {"size": "1"}, {"size": "336"}, {"size": "80"}]}}}, "dtype": {"type": "DT_FLOAT"}}}, {"name": "PartitionedCall/transpose_146/perm", "op": "Const", "attr": {"value": {"tensor": {"dtype": "DT_INT32", "tensorShape": {"dim": [{"size": "4"}]}}}, "dtype": {"type": "DT_INT32"}}}, {"name": "PartitionedCall/onnx_tf_prefix_p2o.BatchNormalization.39/mul", "op": "Const", "attr": {"value": {"tensor": {"dtype": "DT_FLOAT", "tensorShape": {"dim": [{"size": "1"}, {"size": "80"}, {"size": "1"}, {"size": "1"}]}}}, "dtype": {"type": "DT_FLOAT"}}}, {"name": "PartitionedCall/onnx_tf_prefix_p2o.BatchNormalization.39/sub", "op": "Const", "attr": {"value": {"tensor": {"dtype": "DT_FLOAT", "tensorShape": {"dim": [{"size": "1"}, {"size": "80"}, {"size": "1"}, {"size": "1"}]}}}, "dtype": {"type": "DT_FLOAT"}}}, {"name": "PartitionedCall/transpose_148/perm", "op": "Const", "attr": {"value": {"tensor": {"dtype": "DT_INT32", "tensorShape": {"dim": [{"size": "4"}]}}}, "dtype": {"type": "DT_INT32"}}}, {"name": "PartitionedCall/split_39", "op": "Const", "attr": {"value": {"tensor": {"dtype": "DT_FLOAT", "tensorShape": {"dim": [{"size": "1"}, {"size": "1"}, {"size": "80"}, {"size": "480"}]}}}, "dtype": {"type": "DT_FLOAT"}}}, {"name": "PartitionedCall/transpose_149/perm", "op": "Const", "attr": {"value": {"tensor": {"dtype": "DT_INT32", "tensorShape": {"dim": [{"size": "4"}]}}}, "dtype": {"type": "DT_INT32"}}}, {"name": "PartitionedCall/onnx_tf_prefix_p2o.BatchNormalization.40/mul", "op": "Const", "attr": {"value": {"tensor": {"dtype": "DT_FLOAT", "tensorShape": {"dim": [{"size": "1"}, {"size": "480"}, {"size": "1"}, {"size": "1"}]}}}, "dtype": {"type": "DT_FLOAT"}}}, {"name": "PartitionedCall/onnx_tf_prefix_p2o.BatchNormalization.40/sub", "op": "Const", "attr": {"value": {"tensor": {"dtype": "DT_FLOAT", "tensorShape": {"dim": [{"size": "1"}, {"size": "480"}, {"size": "1"}, {"size": "1"}]}}}, "dtype": {"type": "DT_FLOAT"}}}, {"name": "PartitionedCall/add_24/y", "op": "Const", "attr": {"value": {"tensor": {"dtype": "DT_FLOAT", "tensorShape": {}}}, "dtype": {"type": "DT_FLOAT"}}}, {"name": "PartitionedCall/Const_46", "op": "Const", "attr": {"value": {"tensor": {"dtype": "DT_INT32", "tensorShape": {"dim": [{"size": "4"}, {"size": "2"}]}}}, "dtype": {"type": "DT_INT32"}}}, {"name": "PartitionedCall/transpose_151/perm", "op": "Const", "attr": {"value": {"tensor": {"dtype": "DT_INT32", "tensorShape": {"dim": [{"size": "4"}]}}}, "dtype": {"type": "DT_INT32"}}}, {"name": "PartitionedCall/Reshape_177", "op": "Const", "attr": {"value": {"tensor": {"dtype": "DT_FLOAT", "tensorShape": {"dim": [{"size": "5"}, {"size": "5"}, {"size": "480"}, {"size": "1"}]}}}, "dtype": {"type": "DT_FLOAT"}}}, {"name": "PartitionedCall/transpose_152/perm", "op": "Const", "attr": {"value": {"tensor": {"dtype": "DT_INT32", "tensorShape": {"dim": [{"size": "4"}]}}}, "dtype": {"type": "DT_INT32"}}}, {"name": "PartitionedCall/onnx_tf_prefix_p2o.BatchNormalization.41/mul", "op": "Const", "attr": {"value": {"tensor": {"dtype": "DT_FLOAT", "tensorShape": {"dim": [{"size": "1"}, {"size": "480"}, {"size": "1"}, {"size": "1"}]}}}, "dtype": {"type": "DT_FLOAT"}}}, {"name": "PartitionedCall/onnx_tf_prefix_p2o.BatchNormalization.41/sub", "op": "Const", "attr": {"value": {"tensor": {"dtype": "DT_FLOAT", "tensorShape": {"dim": [{"size": "1"}, {"size": "480"}, {"size": "1"}, {"size": "1"}]}}}, "dtype": {"type": "DT_FLOAT"}}}, {"name": "PartitionedCall/add_25/y", "op": "Const", "attr": {"value": {"tensor": {"dtype": "DT_FLOAT", "tensorShape": {}}}, "dtype": {"type": "DT_FLOAT"}}}, {"name": "PartitionedCall/transpose_154/perm", "op": "Const", "attr": {"value": {"tensor": {"dtype": "DT_INT32", "tensorShape": {"dim": [{"size": "4"}]}}}, "dtype": {"type": "DT_INT32"}}}, {"name": "PartitionedCall/split_40", "op": "Const", "attr": {"value": {"tensor": {"dtype": "DT_FLOAT", "tensorShape": {"dim": [{"size": "1"}, {"size": "1"}, {"size": "480"}, {"size": "80"}]}}}, "dtype": {"type": "DT_FLOAT"}}}, {"name": "PartitionedCall/transpose_155/perm", "op": "Const", "attr": {"value": {"tensor": {"dtype": "DT_INT32", "tensorShape": {"dim": [{"size": "4"}]}}}, "dtype": {"type": "DT_INT32"}}}, {"name": "PartitionedCall/onnx_tf_prefix_p2o.BatchNormalization.42/mul", "op": "Const", "attr": {"value": {"tensor": {"dtype": "DT_FLOAT", "tensorShape": {"dim": [{"size": "1"}, {"size": "80"}, {"size": "1"}, {"size": "1"}]}}}, "dtype": {"type": "DT_FLOAT"}}}, {"name": "PartitionedCall/onnx_tf_prefix_p2o.BatchNormalization.42/sub", "op": "Const", "attr": {"value": {"tensor": {"dtype": "DT_FLOAT", "tensorShape": {"dim": [{"size": "1"}, {"size": "80"}, {"size": "1"}, {"size": "1"}]}}}, "dtype": {"type": "DT_FLOAT"}}}, {"name": "PartitionedCall/transpose_157/perm", "op": "Const", "attr": {"value": {"tensor": {"dtype": "DT_INT32", "tensorShape": {"dim": [{"size": "4"}]}}}, "dtype": {"type": "DT_INT32"}}}, {"name": "PartitionedCall/split_41", "op": "Const", "attr": {"value": {"tensor": {"dtype": "DT_FLOAT", "tensorShape": {"dim": [{"size": "1"}, {"size": "1"}, {"size": "80"}, {"size": "480"}]}}}, "dtype": {"type": "DT_FLOAT"}}}, {"name": "PartitionedCall/transpose_158/perm", "op": "Const", "attr": {"value": {"tensor": {"dtype": "DT_INT32", "tensorShape": {"dim": [{"size": "4"}]}}}, "dtype": {"type": "DT_INT32"}}}, {"name": "PartitionedCall/onnx_tf_prefix_p2o.BatchNormalization.43/mul", "op": "Const", "attr": {"value": {"tensor": {"dtype": "DT_FLOAT", "tensorShape": {"dim": [{"size": "1"}, {"size": "480"}, {"size": "1"}, {"size": "1"}]}}}, "dtype": {"type": "DT_FLOAT"}}}, {"name": "PartitionedCall/onnx_tf_prefix_p2o.BatchNormalization.43/sub", "op": "Const", "attr": {"value": {"tensor": {"dtype": "DT_FLOAT", "tensorShape": {"dim": [{"size": "1"}, {"size": "480"}, {"size": "1"}, {"size": "1"}]}}}, "dtype": {"type": "DT_FLOAT"}}}, {"name": "PartitionedCall/add_26/y", "op": "Const", "attr": {"value": {"tensor": {"dtype": "DT_FLOAT", "tensorShape": {}}}, "dtype": {"type": "DT_FLOAT"}}}, {"name": "PartitionedCall/Const_51", "op": "Const", "attr": {"value": {"tensor": {"dtype": "DT_INT32", "tensorShape": {"dim": [{"size": "4"}, {"size": "2"}]}}}, "dtype": {"type": "DT_INT32"}}}, {"name": "PartitionedCall/transpose_160/perm", "op": "Const", "attr": {"value": {"tensor": {"dtype": "DT_INT32", "tensorShape": {"dim": [{"size": "4"}]}}}, "dtype": {"type": "DT_INT32"}}}, {"name": "PartitionedCall/Reshape_190", "op": "Const", "attr": {"value": {"tensor": {"dtype": "DT_FLOAT", "tensorShape": {"dim": [{"size": "5"}, {"size": "5"}, {"size": "480"}, {"size": "1"}]}}}, "dtype": {"type": "DT_FLOAT"}}}, {"name": "PartitionedCall/transpose_161/perm", "op": "Const", "attr": {"value": {"tensor": {"dtype": "DT_INT32", "tensorShape": {"dim": [{"size": "4"}]}}}, "dtype": {"type": "DT_INT32"}}}, {"name": "PartitionedCall/onnx_tf_prefix_p2o.BatchNormalization.44/mul", "op": "Const", "attr": {"value": {"tensor": {"dtype": "DT_FLOAT", "tensorShape": {"dim": [{"size": "1"}, {"size": "480"}, {"size": "1"}, {"size": "1"}]}}}, "dtype": {"type": "DT_FLOAT"}}}, {"name": "PartitionedCall/onnx_tf_prefix_p2o.BatchNormalization.44/sub", "op": "Const", "attr": {"value": {"tensor": {"dtype": "DT_FLOAT", "tensorShape": {"dim": [{"size": "1"}, {"size": "480"}, {"size": "1"}, {"size": "1"}]}}}, "dtype": {"type": "DT_FLOAT"}}}, {"name": "PartitionedCall/add_27/y", "op": "Const", "attr": {"value": {"tensor": {"dtype": "DT_FLOAT", "tensorShape": {}}}, "dtype": {"type": "DT_FLOAT"}}}, {"name": "PartitionedCall/transpose_163/perm", "op": "Const", "attr": {"value": {"tensor": {"dtype": "DT_INT32", "tensorShape": {"dim": [{"size": "4"}]}}}, "dtype": {"type": "DT_INT32"}}}, {"name": "PartitionedCall/split_42", "op": "Const", "attr": {"value": {"tensor": {"dtype": "DT_FLOAT", "tensorShape": {"dim": [{"size": "1"}, {"size": "1"}, {"size": "480"}, {"size": "80"}]}}}, "dtype": {"type": "DT_FLOAT"}}}, {"name": "PartitionedCall/transpose_164/perm", "op": "Const", "attr": {"value": {"tensor": {"dtype": "DT_INT32", "tensorShape": {"dim": [{"size": "4"}]}}}, "dtype": {"type": "DT_INT32"}}}, {"name": "PartitionedCall/onnx_tf_prefix_p2o.BatchNormalization.45/mul", "op": "Const", "attr": {"value": {"tensor": {"dtype": "DT_FLOAT", "tensorShape": {"dim": [{"size": "1"}, {"size": "80"}, {"size": "1"}, {"size": "1"}]}}}, "dtype": {"type": "DT_FLOAT"}}}, {"name": "PartitionedCall/onnx_tf_prefix_p2o.BatchNormalization.45/sub", "op": "Const", "attr": {"value": {"tensor": {"dtype": "DT_FLOAT", "tensorShape": {"dim": [{"size": "1"}, {"size": "80"}, {"size": "1"}, {"size": "1"}]}}}, "dtype": {"type": "DT_FLOAT"}}}, {"name": "PartitionedCall/transpose_166/perm", "op": "Const", "attr": {"value": {"tensor": {"dtype": "DT_INT32", "tensorShape": {"dim": [{"size": "4"}]}}}, "dtype": {"type": "DT_INT32"}}}, {"name": "PartitionedCall/split_43", "op": "Const", "attr": {"value": {"tensor": {"dtype": "DT_FLOAT", "tensorShape": {"dim": [{"size": "1"}, {"size": "1"}, {"size": "80"}, {"size": "480"}]}}}, "dtype": {"type": "DT_FLOAT"}}}, {"name": "PartitionedCall/transpose_167/perm", "op": "Const", "attr": {"value": {"tensor": {"dtype": "DT_INT32", "tensorShape": {"dim": [{"size": "4"}]}}}, "dtype": {"type": "DT_INT32"}}}, {"name": "PartitionedCall/onnx_tf_prefix_p2o.BatchNormalization.46/mul", "op": "Const", "attr": {"value": {"tensor": {"dtype": "DT_FLOAT", "tensorShape": {"dim": [{"size": "1"}, {"size": "480"}, {"size": "1"}, {"size": "1"}]}}}, "dtype": {"type": "DT_FLOAT"}}}, {"name": "PartitionedCall/onnx_tf_prefix_p2o.BatchNormalization.46/sub", "op": "Const", "attr": {"value": {"tensor": {"dtype": "DT_FLOAT", "tensorShape": {"dim": [{"size": "1"}, {"size": "480"}, {"size": "1"}, {"size": "1"}]}}}, "dtype": {"type": "DT_FLOAT"}}}, {"name": "PartitionedCall/add_28/y", "op": "Const", "attr": {"value": {"tensor": {"dtype": "DT_FLOAT", "tensorShape": {}}}, "dtype": {"type": "DT_FLOAT"}}}, {"name": "PartitionedCall/transpose_169/perm", "op": "Const", "attr": {"value": {"tensor": {"dtype": "DT_INT32", "tensorShape": {"dim": [{"size": "4"}]}}}, "dtype": {"type": "DT_INT32"}}}, {"name": "PartitionedCall/split_44", "op": "Const", "attr": {"value": {"tensor": {"dtype": "DT_FLOAT", "tensorShape": {"dim": [{"size": "1"}, {"size": "1"}, {"size": "480"}, {"size": "96"}]}}}, "dtype": {"type": "DT_FLOAT"}}}, {"name": "PartitionedCall/transpose_170/perm", "op": "Const", "attr": {"value": {"tensor": {"dtype": "DT_INT32", "tensorShape": {"dim": [{"size": "4"}]}}}, "dtype": {"type": "DT_INT32"}}}, {"name": "ConstantFolding/PartitionedCall/split_45-folded-1", "op": "Const", "attr": {"value": {"tensor": {"dtype": "DT_INT32", "tensorShape": {"dim": [{"size": "2"}]}}}, "dtype": {"type": "DT_INT32"}}}, {"name": "PartitionedCall/transpose_172/perm", "op": "Const", "attr": {"value": {"tensor": {"dtype": "DT_INT32", "tensorShape": {"dim": [{"size": "4"}]}}}, "dtype": {"type": "DT_INT32"}}}, {"name": "PartitionedCall/split_46", "op": "Const", "attr": {"value": {"tensor": {"dtype": "DT_FLOAT", "tensorShape": {"dim": [{"size": "1"}, {"size": "1"}, {"size": "96"}, {"size": "24"}]}}}, "dtype": {"type": "DT_FLOAT"}}}, {"name": "PartitionedCall/onnx_tf_prefix_sng_Constant_271", "op": "Const", "attr": {"value": {"tensor": {"dtype": "DT_FLOAT", "tensorShape": {"dim": [{"size": "24"}]}}}, "dtype": {"type": "DT_FLOAT"}}}, {"name": "PartitionedCall/transpose_173/perm", "op": "Const", "attr": {"value": {"tensor": {"dtype": "DT_INT32", "tensorShape": {"dim": [{"size": "4"}]}}}, "dtype": {"type": "DT_INT32"}}}, {"name": "PartitionedCall/transpose_175/perm", "op": "Const", "attr": {"value": {"tensor": {"dtype": "DT_INT32", "tensorShape": {"dim": [{"size": "4"}]}}}, "dtype": {"type": "DT_INT32"}}}, {"name": "PartitionedCall/split_47", "op": "Const", "attr": {"value": {"tensor": {"dtype": "DT_FLOAT", "tensorShape": {"dim": [{"size": "1"}, {"size": "1"}, {"size": "24"}, {"size": "96"}]}}}, "dtype": {"type": "DT_FLOAT"}}}, {"name": "PartitionedCall/onnx_tf_prefix_sng_Constant_273", "op": "Const", "attr": {"value": {"tensor": {"dtype": "DT_FLOAT", "tensorShape": {"dim": [{"size": "96"}]}}}, "dtype": {"type": "DT_FLOAT"}}}, {"name": "PartitionedCall/transpose_176/perm", "op": "Const", "attr": {"value": {"tensor": {"dtype": "DT_INT32", "tensorShape": {"dim": [{"size": "4"}]}}}, "dtype": {"type": "DT_INT32"}}}, {"name": "PartitionedCall/mul_43/y", "op": "Const", "attr": {"value": {"tensor": {"dtype": "DT_FLOAT", "tensorShape": {}}}, "dtype": {"type": "DT_FLOAT"}}}, {"name": "PartitionedCall/add_31/y", "op": "Const", "attr": {"value": {"tensor": {"dtype": "DT_FLOAT", "tensorShape": {}}}, "dtype": {"type": "DT_FLOAT"}}}, {"name": "PartitionedCall/clip_by_value_3/Minimum/y", "op": "Const", "attr": {"value": {"tensor": {"dtype": "DT_FLOAT", "tensorShape": {}}}, "dtype": {"type": "DT_FLOAT"}}}, {"name": "PartitionedCall/clip_by_value_3/y", "op": "Const", "attr": {"value": {"tensor": {"dtype": "DT_FLOAT", "tensorShape": {}}}, "dtype": {"type": "DT_FLOAT"}}}, {"name": "PartitionedCall/strided_slice_1/stack", "op": "Const", "attr": {"value": {"tensor": {"dtype": "DT_INT32", "tensorShape": {"dim": [{"size": "1"}]}}}, "dtype": {"type": "DT_INT32"}}}, {"name": "PartitionedCall/strided_slice_1/stack_1", "op": "Const", "attr": {"value": {"tensor": {"dtype": "DT_INT32", "tensorShape": {"dim": [{"size": "1"}]}}}, "dtype": {"type": "DT_INT32"}}}, {"name": "PartitionedCall/strided_slice_1/stack_2", "op": "Const", "attr": {"value": {"tensor": {"dtype": "DT_INT32", "tensorShape": {"dim": [{"size": "1"}]}}}, "dtype": {"type": "DT_INT32"}}}, {"name": "PartitionedCall/transpose_178/perm", "op": "Const", "attr": {"value": {"tensor": {"dtype": "DT_INT32", "tensorShape": {"dim": [{"size": "4"}]}}}, "dtype": {"type": "DT_INT32"}}}, {"name": "PartitionedCall/strided_slice_3/stack", "op": "Const", "attr": {"value": {"tensor": {"dtype": "DT_INT32", "tensorShape": {"dim": [{"size": "1"}]}}}, "dtype": {"type": "DT_INT32"}}}, {"name": "PartitionedCall/strided_slice_3/stack_1", "op": "Const", "attr": {"value": {"tensor": {"dtype": "DT_INT32", "tensorShape": {"dim": [{"size": "1"}]}}}, "dtype": {"type": "DT_INT32"}}}, {"name": "PartitionedCall/strided_slice_3/stack_2", "op": "Const", "attr": {"value": {"tensor": {"dtype": "DT_INT32", "tensorShape": {"dim": [{"size": "1"}]}}}, "dtype": {"type": "DT_INT32"}}}, {"name": "PartitionedCall/transpose_183/perm", "op": "Const", "attr": {"value": {"tensor": {"dtype": "DT_INT32", "tensorShape": {"dim": [{"size": "4"}]}}}, "dtype": {"type": "DT_INT32"}}}, {"name": "PartitionedCall/strided_slice_5/stack", "op": "Const", "attr": {"value": {"tensor": {"dtype": "DT_INT32", "tensorShape": {"dim": [{"size": "1"}]}}}, "dtype": {"type": "DT_INT32"}}}, {"name": "PartitionedCall/strided_slice_5/stack_1", "op": "Const", "attr": {"value": {"tensor": {"dtype": "DT_INT32", "tensorShape": {"dim": [{"size": "1"}]}}}, "dtype": {"type": "DT_INT32"}}}, {"name": "PartitionedCall/strided_slice_5/stack_2", "op": "Const", "attr": {"value": {"tensor": {"dtype": "DT_INT32", "tensorShape": {"dim": [{"size": "1"}]}}}, "dtype": {"type": "DT_INT32"}}}, {"name": "PartitionedCall/transpose_191/perm", "op": "Const", "attr": {"value": {"tensor": {"dtype": "DT_INT32", "tensorShape": {"dim": [{"size": "4"}]}}}, "dtype": {"type": "DT_INT32"}}}, {"name": "PartitionedCall/Const_62", "op": "Const", "attr": {"value": {"tensor": {"dtype": "DT_INT32", "tensorShape": {"dim": [{"size": "4"}, {"size": "2"}]}}}, "dtype": {"type": "DT_INT32"}}}, {"name": "PartitionedCall/transpose_208/perm", "op": "Const", "attr": {"value": {"tensor": {"dtype": "DT_INT32", "tensorShape": {"dim": [{"size": "4"}]}}}, "dtype": {"type": "DT_INT32"}}}, {"name": "PartitionedCall/split_59", "op": "Const", "attr": {"value": {"tensor": {"dtype": "DT_FLOAT", "tensorShape": {"dim": [{"size": "3"}, {"size": "3"}, {"size": "96"}, {"size": "24"}]}}}, "dtype": {"type": "DT_FLOAT"}}}, {"name": "PartitionedCall/transpose_209/perm", "op": "Const", "attr": {"value": {"tensor": {"dtype": "DT_INT32", "tensorShape": {"dim": [{"size": "4"}]}}}, "dtype": {"type": "DT_INT32"}}}, {"name": "ConstantFolding/PartitionedCall/split_60-folded-1", "op": "Const", "attr": {"value": {"tensor": {"dtype": "DT_INT32", "tensorShape": {"dim": [{"size": "2"}]}}}, "dtype": {"type": "DT_INT32"}}}, {"name": "PartitionedCall/transpose_214/perm", "op": "Const", "attr": {"value": {"tensor": {"dtype": "DT_INT32", "tensorShape": {"dim": [{"size": "4"}]}}}, "dtype": {"type": "DT_INT32"}}}, {"name": "PartitionedCall/split_62", "op": "Const", "attr": {"value": {"tensor": {"dtype": "DT_FLOAT", "tensorShape": {"dim": [{"size": "1"}, {"size": "1"}, {"size": "24"}, {"size": "6"}]}}}, "dtype": {"type": "DT_FLOAT"}}}, {"name": "PartitionedCall/onnx_tf_prefix_sng_Constant_245", "op": "Const", "attr": {"value": {"tensor": {"dtype": "DT_FLOAT", "tensorShape": {"dim": [{"size": "6"}]}}}, "dtype": {"type": "DT_FLOAT"}}}, {"name": "PartitionedCall/transpose_215/perm", "op": "Const", "attr": {"value": {"tensor": {"dtype": "DT_INT32", "tensorShape": {"dim": [{"size": "4"}]}}}, "dtype": {"type": "DT_INT32"}}}, {"name": "PartitionedCall/transpose_219/perm", "op": "Const", "attr": {"value": {"tensor": {"dtype": "DT_INT32", "tensorShape": {"dim": [{"size": "4"}]}}}, "dtype": {"type": "DT_INT32"}}}, {"name": "PartitionedCall/split_63", "op": "Const", "attr": {"value": {"tensor": {"dtype": "DT_FLOAT", "tensorShape": {"dim": [{"size": "1"}, {"size": "1"}, {"size": "6"}, {"size": "24"}]}}}, "dtype": {"type": "DT_FLOAT"}}}, {"name": "PartitionedCall/onnx_tf_prefix_sng_Constant_247", "op": "Const", "attr": {"value": {"tensor": {"dtype": "DT_FLOAT", "tensorShape": {"dim": [{"size": "24"}]}}}, "dtype": {"type": "DT_FLOAT"}}}, {"name": "PartitionedCall/transpose_220/perm", "op": "Const", "attr": {"value": {"tensor": {"dtype": "DT_INT32", "tensorShape": {"dim": [{"size": "4"}]}}}, "dtype": {"type": "DT_INT32"}}}, {"name": "PartitionedCall/mul_52/y", "op": "Const", "attr": {"value": {"tensor": {"dtype": "DT_FLOAT", "tensorShape": {}}}, "dtype": {"type": "DT_FLOAT"}}}, {"name": "PartitionedCall/add_43/y", "op": "Const", "attr": {"value": {"tensor": {"dtype": "DT_FLOAT", "tensorShape": {}}}, "dtype": {"type": "DT_FLOAT"}}}, {"name": "PartitionedCall/clip_by_value_7/Minimum/y", "op": "Const", "attr": {"value": {"tensor": {"dtype": "DT_FLOAT", "tensorShape": {}}}, "dtype": {"type": "DT_FLOAT"}}}, {"name": "PartitionedCall/clip_by_value_7/y", "op": "Const", "attr": {"value": {"tensor": {"dtype": "DT_FLOAT", "tensorShape": {}}}, "dtype": {"type": "DT_FLOAT"}}}, {"name": "PartitionedCall/onnx_tf_prefix_p2o.Concat.0/axis", "op": "Const", "attr": {"value": {"tensor": {"dtype": "DT_INT32", "tensorShape": {}}}, "dtype": {"type": "DT_INT32"}}}, {"name": "PartitionedCall/Const_66", "op": "Const", "attr": {"value": {"tensor": {"dtype": "DT_INT32", "tensorShape": {"dim": [{"size": "4"}, {"size": "2"}]}}}, "dtype": {"type": "DT_INT32"}}}, {"name": "PartitionedCall/transpose_226/perm", "op": "Const", "attr": {"value": {"tensor": {"dtype": "DT_INT32", "tensorShape": {"dim": [{"size": "4"}]}}}, "dtype": {"type": "DT_INT32"}}}, {"name": "PartitionedCall/split_64", "op": "Const", "attr": {"value": {"tensor": {"dtype": "DT_FLOAT", "tensorShape": {"dim": [{"size": "3"}, {"size": "3"}, {"size": "96"}, {"size": "24"}]}}}, "dtype": {"type": "DT_FLOAT"}}}, {"name": "PartitionedCall/transpose_227/perm", "op": "Const", "attr": {"value": {"tensor": {"dtype": "DT_INT32", "tensorShape": {"dim": [{"size": "4"}]}}}, "dtype": {"type": "DT_INT32"}}}, {"name": "PartitionedCall/onnx_tf_prefix_p2o.BatchNormalization.47/mul", "op": "Const", "attr": {"value": {"tensor": {"dtype": "DT_FLOAT", "tensorShape": {"dim": [{"size": "1"}, {"size": "24"}, {"size": "1"}, {"size": "1"}]}}}, "dtype": {"type": "DT_FLOAT"}}}, {"name": "PartitionedCall/onnx_tf_prefix_p2o.BatchNormalization.47/sub", "op": "Const", "attr": {"value": {"tensor": {"dtype": "DT_FLOAT", "tensorShape": {"dim": [{"size": "1"}, {"size": "24"}, {"size": "1"}, {"size": "1"}]}}}, "dtype": {"type": "DT_FLOAT"}}}, {"name": "PartitionedCall/transpose_229/perm", "op": "Const", "attr": {"value": {"tensor": {"dtype": "DT_INT32", "tensorShape": {"dim": [{"size": "4"}]}}}, "dtype": {"type": "DT_INT32"}}}, {"name": "PartitionedCall/strided_slice_18/stack", "op": "Const", "attr": {"value": {"tensor": {"dtype": "DT_INT32", "tensorShape": {"dim": [{"size": "1"}]}}}, "dtype": {"type": "DT_INT32"}}}, {"name": "PartitionedCall/strided_slice_18/stack_1", "op": "Const", "attr": {"value": {"tensor": {"dtype": "DT_INT32", "tensorShape": {"dim": [{"size": "1"}]}}}, "dtype": {"type": "DT_INT32"}}}, {"name": "PartitionedCall/strided_slice_18/stack_2", "op": "Const", "attr": {"value": {"tensor": {"dtype": "DT_INT32", "tensorShape": {"dim": [{"size": "1"}]}}}, "dtype": {"type": "DT_INT32"}}}, {"name": "PartitionedCall/transpose_230/perm", "op": "Const", "attr": {"value": {"tensor": {"dtype": "DT_INT32", "tensorShape": {"dim": [{"size": "4"}]}}}, "dtype": {"type": "DT_INT32"}}}, {"name": "PartitionedCall/onnx_tf_prefix_sng_Constant_284", "op": "Const", "attr": {"value": {"tensor": {"dtype": "DT_FLOAT", "tensorShape": {"dim": [{"size": "1"}, {"size": "24"}, {"size": "1"}, {"size": "1"}]}}}, "dtype": {"type": "DT_FLOAT"}}}, {"name": "PartitionedCall/onnx_tf_prefix_p2o.BatchNormalization.48/mul", "op": "Const", "attr": {"value": {"tensor": {"dtype": "DT_FLOAT", "tensorShape": {"dim": [{"size": "1"}, {"size": "24"}, {"size": "1"}, {"size": "1"}]}}}, "dtype": {"type": "DT_FLOAT"}}}, {"name": "PartitionedCall/onnx_tf_prefix_p2o.BatchNormalization.48/sub", "op": "Const", "attr": {"value": {"tensor": {"dtype": "DT_FLOAT", "tensorShape": {"dim": [{"size": "1"}, {"size": "24"}, {"size": "1"}, {"size": "1"}]}}}, "dtype": {"type": "DT_FLOAT"}}}, {"name": "PartitionedCall/transpose_232/perm", "op": "Const", "attr": {"value": {"tensor": {"dtype": "DT_INT32", "tensorShape": {"dim": [{"size": "4"}]}}}, "dtype": {"type": "DT_INT32"}}}, {"name": "PartitionedCall/strided_slice_25/stack", "op": "Const", "attr": {"value": {"tensor": {"dtype": "DT_INT32", "tensorShape": {"dim": [{"size": "1"}]}}}, "dtype": {"type": "DT_INT32"}}}, {"name": "PartitionedCall/strided_slice_25/stack_1", "op": "Const", "attr": {"value": {"tensor": {"dtype": "DT_INT32", "tensorShape": {"dim": [{"size": "1"}]}}}, "dtype": {"type": "DT_INT32"}}}, {"name": "PartitionedCall/strided_slice_25/stack_2", "op": "Const", "attr": {"value": {"tensor": {"dtype": "DT_INT32", "tensorShape": {"dim": [{"size": "1"}]}}}, "dtype": {"type": "DT_INT32"}}}, {"name": "PartitionedCall/transpose_233/perm", "op": "Const", "attr": {"value": {"tensor": {"dtype": "DT_INT32", "tensorShape": {"dim": [{"size": "4"}]}}}, "dtype": {"type": "DT_INT32"}}}, {"name": "PartitionedCall/onnx_tf_prefix_sng_Constant_286", "op": "Const", "attr": {"value": {"tensor": {"dtype": "DT_FLOAT", "tensorShape": {"dim": [{"size": "1"}, {"size": "1"}, {"size": "1"}, {"size": "1"}]}}}, "dtype": {"type": "DT_FLOAT"}}}, {"name": "x", "op": "Placeholder", "attr": {"shape": {"shape": {"dim": [{"size": "-1"}, {"size": "3"}, {"size": "-1"}, {"size": "-1"}]}}, "dtype": {"type": "DT_FLOAT"}}}, {"name": "PartitionedCall/Pad", "op": "Pad", "input": ["x", "PartitionedCall/Const"], "attr": {"Tpaddings": {"type": "DT_INT32"}, "T": {"type": "DT_FLOAT"}}}, {"name": "PartitionedCall/transpose_1", "op": "Transpose", "input": ["PartitionedCall/Pad", "PartitionedCall/transpose_1/perm"], "attr": {"Tperm": {"type": "DT_INT32"}, "T": {"type": "DT_FLOAT"}}}, {"name": "PartitionedCall/convolution", "op": "Conv2D", "input": ["PartitionedCall/transpose_1", "PartitionedCall/split"], "device": "/device:CPU:0", "attr": {"padding": {"s": "VkFMSUQ="}, "data_format": {"s": "TkhXQw=="}, "strides": {"list": {"i": ["1", "2", "2", "1"]}}, "use_cudnn_on_gpu": {"b": true}, "T": {"type": "DT_FLOAT"}, "explicit_paddings": {"list": {}}, "dilations": {"list": {"i": ["1", "1", "1", "1"]}}}}, {"name": "PartitionedCall/transpose_2", "op": "Transpose", "input": ["PartitionedCall/convolution", "PartitionedCall/transpose_2/perm"], "attr": {"Tperm": {"type": "DT_INT32"}, "T": {"type": "DT_FLOAT"}}}, {"name": "PartitionedCall/onnx_tf_prefix_p2o.BatchNormalization.0/mul_1", "op": "Mul", "input": ["PartitionedCall/transpose_2", "PartitionedCall/onnx_tf_prefix_p2o.BatchNormalization.0/mul"], "attr": {"T": {"type": "DT_FLOAT"}}}, {"name": "PartitionedCall/onnx_tf_prefix_p2o.BatchNormalization.0/add_1", "op": "AddV2", "input": ["PartitionedCall/onnx_tf_prefix_p2o.BatchNormalization.0/mul_1", "PartitionedCall/onnx_tf_prefix_p2o.BatchNormalization.0/sub"], "attr": {"T": {"type": "DT_FLOAT"}}}, {"name": "PartitionedCall/mul", "op": "Mul", "input": ["PartitionedCall/mul/x", "PartitionedCall/onnx_tf_prefix_p2o.BatchNormalization.0/add_1"], "attr": {"T": {"type": "DT_FLOAT"}}}, {"name": "PartitionedCall/add", "op": "AddV2", "input": ["PartitionedCall/mul", "PartitionedCall/add/y"], "attr": {"T": {"type": "DT_FLOAT"}}}, {"name": "PartitionedCall/Minimum", "op": "Minimum", "input": ["PartitionedCall/Const_2", "PartitionedCall/add"], "attr": {"T": {"type": "DT_FLOAT"}}}, {"name": "PartitionedCall/Maximum", "op": "Maximum", "input": ["PartitionedCall/Const_1", "PartitionedCall/Minimum"], "attr": {"T": {"type": "DT_FLOAT"}}}, {"name": "PartitionedCall/mul_1", "op": "Mul", "input": ["PartitionedCall/onnx_tf_prefix_p2o.BatchNormalization.0/add_1", "PartitionedCall/Maximum"], "attr": {"T": {"type": "DT_FLOAT"}}}, {"name": "PartitionedCall/transpose_4", "op": "Transpose", "input": ["PartitionedCall/mul_1", "PartitionedCall/transpose_4/perm"], "attr": {"Tperm": {"type": "DT_INT32"}, "T": {"type": "DT_FLOAT"}}}, {"name": "PartitionedCall/convolution_1", "op": "Conv2D", "input": ["PartitionedCall/transpose_4", "PartitionedCall/split_1"], "device": "/device:CPU:0", "attr": {"padding": {"s": "VkFMSUQ="}, "data_format": {"s": "TkhXQw=="}, "use_cudnn_on_gpu": {"b": true}, "strides": {"list": {"i": ["1", "1", "1", "1"]}}, "T": {"type": "DT_FLOAT"}, "explicit_paddings": {"list": {}}, "dilations": {"list": {"i": ["1", "1", "1", "1"]}}}}, {"name": "PartitionedCall/transpose_5", "op": "Transpose", "input": ["PartitionedCall/convolution_1", "PartitionedCall/transpose_5/perm"], "attr": {"Tperm": {"type": "DT_INT32"}, "T": {"type": "DT_FLOAT"}}}, {"name": "PartitionedCall/onnx_tf_prefix_p2o.BatchNormalization.1/mul_1", "op": "Mul", "input": ["PartitionedCall/transpose_5", "PartitionedCall/onnx_tf_prefix_p2o.BatchNormalization.1/mul"], "attr": {"T": {"type": "DT_FLOAT"}}}, {"name": "PartitionedCall/onnx_tf_prefix_p2o.BatchNormalization.1/add_1", "op": "AddV2", "input": ["PartitionedCall/onnx_tf_prefix_p2o.BatchNormalization.1/mul_1", "PartitionedCall/onnx_tf_prefix_p2o.BatchNormalization.1/sub"], "attr": {"T": {"type": "DT_FLOAT"}}}, {"name": "PartitionedCall/onnx_tf_prefix_p2o.Relu.0", "op": "Relu", "input": ["PartitionedCall/onnx_tf_prefix_p2o.BatchNormalization.1/add_1"], "attr": {"T": {"type": "DT_FLOAT"}}}, {"name": "PartitionedCall/Pad_1", "op": "Pad", "input": ["PartitionedCall/onnx_tf_prefix_p2o.Relu.0", "PartitionedCall/Const_3"], "attr": {"Tpaddings": {"type": "DT_INT32"}, "T": {"type": "DT_FLOAT"}}}, {"name": "PartitionedCall/transpose_7", "op": "Transpose", "input": ["PartitionedCall/Pad_1", "PartitionedCall/transpose_7/perm"], "attr": {"Tperm": {"type": "DT_INT32"}, "T": {"type": "DT_FLOAT"}}}, {"name": "PartitionedCall/depthwise", "op": "DepthwiseConv2dNative", "input": ["PartitionedCall/transpose_7", "PartitionedCall/Reshape_8"], "attr": {"padding": {"s": "VkFMSUQ="}, "data_format": {"s": "TkhXQw=="}, "T": {"type": "DT_FLOAT"}, "explicit_paddings": {"list": {}}, "dilations": {"list": {"i": ["1", "1", "1", "1"]}}, "strides": {"list": {"i": ["1", "1", "1", "1"]}}}}, {"name": "PartitionedCall/transpose_8", "op": "Transpose", "input": ["PartitionedCall/depthwise", "PartitionedCall/transpose_8/perm"], "attr": {"Tperm": {"type": "DT_INT32"}, "T": {"type": "DT_FLOAT"}}}, {"name": "PartitionedCall/onnx_tf_prefix_p2o.BatchNormalization.2/mul_1", "op": "Mul", "input": ["PartitionedCall/transpose_8", "PartitionedCall/onnx_tf_prefix_p2o.BatchNormalization.2/mul"], "attr": {"T": {"type": "DT_FLOAT"}}}, {"name": "PartitionedCall/onnx_tf_prefix_p2o.BatchNormalization.2/add_1", "op": "AddV2", "input": ["PartitionedCall/onnx_tf_prefix_p2o.BatchNormalization.2/mul_1", "PartitionedCall/onnx_tf_prefix_p2o.BatchNormalization.2/sub"], "attr": {"T": {"type": "DT_FLOAT"}}}, {"name": "PartitionedCall/onnx_tf_prefix_p2o.Relu.1", "op": "Relu", "input": ["PartitionedCall/onnx_tf_prefix_p2o.BatchNormalization.2/add_1"], "attr": {"T": {"type": "DT_FLOAT"}}}, {"name": "PartitionedCall/transpose_10", "op": "Transpose", "input": ["PartitionedCall/onnx_tf_prefix_p2o.Relu.1", "PartitionedCall/transpose_10/perm"], "attr": {"Tperm": {"type": "DT_INT32"}, "T": {"type": "DT_FLOAT"}}}, {"name": "PartitionedCall/convolution_2", "op": "Conv2D", "input": ["PartitionedCall/transpose_10", "PartitionedCall/split_2"], "device": "/device:CPU:0", "attr": {"padding": {"s": "VkFMSUQ="}, "data_format": {"s": "TkhXQw=="}, "strides": {"list": {"i": ["1", "1", "1", "1"]}}, "use_cudnn_on_gpu": {"b": true}, "T": {"type": "DT_FLOAT"}, "explicit_paddings": {"list": {}}, "dilations": {"list": {"i": ["1", "1", "1", "1"]}}}}, {"name": "PartitionedCall/transpose_11", "op": "Transpose", "input": ["PartitionedCall/convolution_2", "PartitionedCall/transpose_11/perm"], "attr": {"Tperm": {"type": "DT_INT32"}, "T": {"type": "DT_FLOAT"}}}, {"name": "PartitionedCall/onnx_tf_prefix_p2o.BatchNormalization.3/mul_1", "op": "Mul", "input": ["PartitionedCall/transpose_11", "PartitionedCall/onnx_tf_prefix_p2o.BatchNormalization.3/mul"], "attr": {"T": {"type": "DT_FLOAT"}}}, {"name": "PartitionedCall/onnx_tf_prefix_p2o.BatchNormalization.3/add_1", "op": "AddV2", "input": ["PartitionedCall/onnx_tf_prefix_p2o.BatchNormalization.3/mul_1", "PartitionedCall/onnx_tf_prefix_p2o.BatchNormalization.3/sub"], "attr": {"T": {"type": "DT_FLOAT"}}}, {"name": "PartitionedCall/onnx_tf_prefix_p2o.Add.0", "op": "AddV2", "input": ["PartitionedCall/mul_1", "PartitionedCall/onnx_tf_prefix_p2o.BatchNormalization.3/add_1"], "attr": {"T": {"type": "DT_FLOAT"}}}, {"name": "PartitionedCall/transpose_13", "op": "Transpose", "input": ["PartitionedCall/onnx_tf_prefix_p2o.Add.0", "PartitionedCall/transpose_13/perm"], "attr": {"Tperm": {"type": "DT_INT32"}, "T": {"type": "DT_FLOAT"}}}, {"name": "PartitionedCall/convolution_3", "op": "Conv2D", "input": ["PartitionedCall/transpose_13", "PartitionedCall/split_3"], "device": "/device:CPU:0", "attr": {"padding": {"s": "VkFMSUQ="}, "data_format": {"s": "TkhXQw=="}, "use_cudnn_on_gpu": {"b": true}, "strides": {"list": {"i": ["1", "1", "1", "1"]}}, "T": {"type": "DT_FLOAT"}, "explicit_paddings": {"list": {}}, "dilations": {"list": {"i": ["1", "1", "1", "1"]}}}}, {"name": "PartitionedCall/transpose_14", "op": "Transpose", "input": ["PartitionedCall/convolution_3", "PartitionedCall/transpose_14/perm"], "attr": {"Tperm": {"type": "DT_INT32"}, "T": {"type": "DT_FLOAT"}}}, {"name": "PartitionedCall/onnx_tf_prefix_p2o.BatchNormalization.4/mul_1", "op": "Mul", "input": ["PartitionedCall/transpose_14", "PartitionedCall/onnx_tf_prefix_p2o.BatchNormalization.4/mul"], "attr": {"T": {"type": "DT_FLOAT"}}}, {"name": "PartitionedCall/onnx_tf_prefix_p2o.BatchNormalization.4/add_1", "op": "AddV2", "input": ["PartitionedCall/onnx_tf_prefix_p2o.BatchNormalization.4/mul_1", "PartitionedCall/onnx_tf_prefix_p2o.BatchNormalization.4/sub"], "attr": {"T": {"type": "DT_FLOAT"}}}, {"name": "PartitionedCall/onnx_tf_prefix_p2o.Relu.2", "op": "Relu", "input": ["PartitionedCall/onnx_tf_prefix_p2o.BatchNormalization.4/add_1"], "attr": {"T": {"type": "DT_FLOAT"}}}, {"name": "PartitionedCall/Pad_2", "op": "Pad", "input": ["PartitionedCall/onnx_tf_prefix_p2o.Relu.2", "PartitionedCall/Const_4"], "attr": {"Tpaddings": {"type": "DT_INT32"}, "T": {"type": "DT_FLOAT"}}}, {"name": "PartitionedCall/transpose_16", "op": "Transpose", "input": ["PartitionedCall/Pad_2", "PartitionedCall/transpose_16/perm"], "attr": {"Tperm": {"type": "DT_INT32"}, "T": {"type": "DT_FLOAT"}}}, {"name": "PartitionedCall/depthwise_1", "op": "DepthwiseConv2dNative", "input": ["PartitionedCall/transpose_16", "PartitionedCall/Reshape_21"], "attr": {"padding": {"s": "VkFMSUQ="}, "data_format": {"s": "TkhXQw=="}, "T": {"type": "DT_FLOAT"}, "explicit_paddings": {"list": {}}, "dilations": {"list": {"i": ["1", "1", "1", "1"]}}, "strides": {"list": {"i": ["1", "2", "2", "1"]}}}}, {"name": "PartitionedCall/transpose_17", "op": "Transpose", "input": ["PartitionedCall/depthwise_1", "PartitionedCall/transpose_17/perm"], "attr": {"Tperm": {"type": "DT_INT32"}, "T": {"type": "DT_FLOAT"}}}, {"name": "PartitionedCall/onnx_tf_prefix_p2o.BatchNormalization.5/mul_1", "op": "Mul", "input": ["PartitionedCall/transpose_17", "PartitionedCall/onnx_tf_prefix_p2o.BatchNormalization.5/mul"], "attr": {"T": {"type": "DT_FLOAT"}}}, {"name": "PartitionedCall/onnx_tf_prefix_p2o.BatchNormalization.5/add_1", "op": "AddV2", "input": ["PartitionedCall/onnx_tf_prefix_p2o.BatchNormalization.5/mul_1", "PartitionedCall/onnx_tf_prefix_p2o.BatchNormalization.5/sub"], "attr": {"T": {"type": "DT_FLOAT"}}}, {"name": "PartitionedCall/onnx_tf_prefix_p2o.Relu.3", "op": "Relu", "input": ["PartitionedCall/onnx_tf_prefix_p2o.BatchNormalization.5/add_1"], "attr": {"T": {"type": "DT_FLOAT"}}}, {"name": "PartitionedCall/transpose_19", "op": "Transpose", "input": ["PartitionedCall/onnx_tf_prefix_p2o.Relu.3", "PartitionedCall/transpose_19/perm"], "attr": {"Tperm": {"type": "DT_INT32"}, "T": {"type": "DT_FLOAT"}}}, {"name": "PartitionedCall/convolution_4", "op": "Conv2D", "input": ["PartitionedCall/transpose_19", "PartitionedCall/split_4"], "device": "/device:CPU:0", "attr": {"padding": {"s": "VkFMSUQ="}, "data_format": {"s": "TkhXQw=="}, "use_cudnn_on_gpu": {"b": true}, "strides": {"list": {"i": ["1", "1", "1", "1"]}}, "T": {"type": "DT_FLOAT"}, "explicit_paddings": {"list": {}}, "dilations": {"list": {"i": ["1", "1", "1", "1"]}}}}, {"name": "PartitionedCall/transpose_20", "op": "Transpose", "input": ["PartitionedCall/convolution_4", "PartitionedCall/transpose_20/perm"], "attr": {"Tperm": {"type": "DT_INT32"}, "T": {"type": "DT_FLOAT"}}}, {"name": "PartitionedCall/onnx_tf_prefix_p2o.BatchNormalization.6/mul_1", "op": "Mul", "input": ["PartitionedCall/transpose_20", "PartitionedCall/onnx_tf_prefix_p2o.BatchNormalization.6/mul"], "attr": {"T": {"type": "DT_FLOAT"}}}, {"name": "PartitionedCall/onnx_tf_prefix_p2o.BatchNormalization.6/add_1", "op": "AddV2", "input": ["PartitionedCall/onnx_tf_prefix_p2o.BatchNormalization.6/mul_1", "PartitionedCall/onnx_tf_prefix_p2o.BatchNormalization.6/sub"], "attr": {"T": {"type": "DT_FLOAT"}}}, {"name": "PartitionedCall/transpose_22", "op": "Transpose", "input": ["PartitionedCall/onnx_tf_prefix_p2o.BatchNormalization.6/add_1", "PartitionedCall/transpose_22/perm"], "attr": {"Tperm": {"type": "DT_INT32"}, "T": {"type": "DT_FLOAT"}}}, {"name": "PartitionedCall/convolution_5", "op": "Conv2D", "input": ["PartitionedCall/transpose_22", "PartitionedCall/split_5"], "device": "/device:CPU:0", "attr": {"padding": {"s": "VkFMSUQ="}, "data_format": {"s": "TkhXQw=="}, "use_cudnn_on_gpu": {"b": true}, "strides": {"list": {"i": ["1", "1", "1", "1"]}}, "T": {"type": "DT_FLOAT"}, "explicit_paddings": {"list": {}}, "dilations": {"list": {"i": ["1", "1", "1", "1"]}}}}, {"name": "PartitionedCall/transpose_23", "op": "Transpose", "input": ["PartitionedCall/convolution_5", "PartitionedCall/transpose_23/perm"], "attr": {"Tperm": {"type": "DT_INT32"}, "T": {"type": "DT_FLOAT"}}}, {"name": "PartitionedCall/onnx_tf_prefix_p2o.BatchNormalization.7/mul_1", "op": "Mul", "input": ["PartitionedCall/transpose_23", "PartitionedCall/onnx_tf_prefix_p2o.BatchNormalization.7/mul"], "attr": {"T": {"type": "DT_FLOAT"}}}, {"name": "PartitionedCall/onnx_tf_prefix_p2o.BatchNormalization.7/add_1", "op": "AddV2", "input": ["PartitionedCall/onnx_tf_prefix_p2o.BatchNormalization.7/mul_1", "PartitionedCall/onnx_tf_prefix_p2o.BatchNormalization.7/sub"], "attr": {"T": {"type": "DT_FLOAT"}}}, {"name": "PartitionedCall/onnx_tf_prefix_p2o.Relu.4", "op": "Relu", "input": ["PartitionedCall/onnx_tf_prefix_p2o.BatchNormalization.7/add_1"], "attr": {"T": {"type": "DT_FLOAT"}}}, {"name": "PartitionedCall/Pad_3", "op": "Pad", "input": ["PartitionedCall/onnx_tf_prefix_p2o.Relu.4", "PartitionedCall/Const_5"], "attr": {"Tpaddings": {"type": "DT_INT32"}, "T": {"type": "DT_FLOAT"}}}, {"name": "PartitionedCall/transpose_25", "op": "Transpose", "input": ["PartitionedCall/Pad_3", "PartitionedCall/transpose_25/perm"], "attr": {"Tperm": {"type": "DT_INT32"}, "T": {"type": "DT_FLOAT"}}}, {"name": "PartitionedCall/depthwise_2", "op": "DepthwiseConv2dNative", "input": ["PartitionedCall/transpose_25", "PartitionedCall/Reshape_34"], "attr": {"padding": {"s": "VkFMSUQ="}, "data_format": {"s": "TkhXQw=="}, "T": {"type": "DT_FLOAT"}, "explicit_paddings": {"list": {}}, "dilations": {"list": {"i": ["1", "1", "1", "1"]}}, "strides": {"list": {"i": ["1", "1", "1", "1"]}}}}, {"name": "PartitionedCall/transpose_26", "op": "Transpose", "input": ["PartitionedCall/depthwise_2", "PartitionedCall/transpose_26/perm"], "attr": {"Tperm": {"type": "DT_INT32"}, "T": {"type": "DT_FLOAT"}}}, {"name": "PartitionedCall/onnx_tf_prefix_p2o.BatchNormalization.8/mul_1", "op": "Mul", "input": ["PartitionedCall/transpose_26", "PartitionedCall/onnx_tf_prefix_p2o.BatchNormalization.8/mul"], "attr": {"T": {"type": "DT_FLOAT"}}}, {"name": "PartitionedCall/onnx_tf_prefix_p2o.BatchNormalization.8/add_1", "op": "AddV2", "input": ["PartitionedCall/onnx_tf_prefix_p2o.BatchNormalization.8/mul_1", "PartitionedCall/onnx_tf_prefix_p2o.BatchNormalization.8/sub"], "attr": {"T": {"type": "DT_FLOAT"}}}, {"name": "PartitionedCall/onnx_tf_prefix_p2o.Relu.5", "op": "Relu", "input": ["PartitionedCall/onnx_tf_prefix_p2o.BatchNormalization.8/add_1"], "attr": {"T": {"type": "DT_FLOAT"}}}, {"name": "PartitionedCall/transpose_28", "op": "Transpose", "input": ["PartitionedCall/onnx_tf_prefix_p2o.Relu.5", "PartitionedCall/transpose_28/perm"], "attr": {"Tperm": {"type": "DT_INT32"}, "T": {"type": "DT_FLOAT"}}}, {"name": "PartitionedCall/convolution_6", "op": "Conv2D", "input": ["PartitionedCall/transpose_28", "PartitionedCall/split_6"], "device": "/device:CPU:0", "attr": {"padding": {"s": "VkFMSUQ="}, "data_format": {"s": "TkhXQw=="}, "use_cudnn_on_gpu": {"b": true}, "strides": {"list": {"i": ["1", "1", "1", "1"]}}, "T": {"type": "DT_FLOAT"}, "explicit_paddings": {"list": {}}, "dilations": {"list": {"i": ["1", "1", "1", "1"]}}}}, {"name": "PartitionedCall/transpose_29", "op": "Transpose", "input": ["PartitionedCall/convolution_6", "PartitionedCall/transpose_29/perm"], "attr": {"Tperm": {"type": "DT_INT32"}, "T": {"type": "DT_FLOAT"}}}, {"name": "PartitionedCall/onnx_tf_prefix_p2o.BatchNormalization.9/mul_1", "op": "Mul", "input": ["PartitionedCall/transpose_29", "PartitionedCall/onnx_tf_prefix_p2o.BatchNormalization.9/mul"], "attr": {"T": {"type": "DT_FLOAT"}}}, {"name": "PartitionedCall/onnx_tf_prefix_p2o.BatchNormalization.9/add_1", "op": "AddV2", "input": ["PartitionedCall/onnx_tf_prefix_p2o.BatchNormalization.9/mul_1", "PartitionedCall/onnx_tf_prefix_p2o.BatchNormalization.9/sub"], "attr": {"T": {"type": "DT_FLOAT"}}}, {"name": "PartitionedCall/onnx_tf_prefix_p2o.Add.2", "op": "AddV2", "input": ["PartitionedCall/onnx_tf_prefix_p2o.BatchNormalization.6/add_1", "PartitionedCall/onnx_tf_prefix_p2o.BatchNormalization.9/add_1"], "attr": {"T": {"type": "DT_FLOAT"}}}, {"name": "PartitionedCall/transpose_34", "op": "Transpose", "input": ["PartitionedCall/onnx_tf_prefix_p2o.Add.2", "PartitionedCall/transpose_34/perm"], "attr": {"Tperm": {"type": "DT_INT32"}, "T": {"type": "DT_FLOAT"}}}, {"name": "PartitionedCall/transpose_31", "op": "Transpose", "input": ["PartitionedCall/onnx_tf_prefix_p2o.Add.2", "PartitionedCall/transpose_31/perm"], "attr": {"Tperm": {"type": "DT_INT32"}, "T": {"type": "DT_FLOAT"}}}, {"name": "PartitionedCall/convolution_8", "op": "Conv2D", "input": ["PartitionedCall/transpose_34", "PartitionedCall/split_8"], "device": "/device:CPU:0", "attr": {"padding": {"s": "VkFMSUQ="}, "data_format": {"s": "TkhXQw=="}, "strides": {"list": {"i": ["1", "1", "1", "1"]}}, "use_cudnn_on_gpu": {"b": true}, "T": {"type": "DT_FLOAT"}, "explicit_paddings": {"list": {}}, "dilations": {"list": {"i": ["1", "1", "1", "1"]}}}}, {"name": "PartitionedCall/convolution_7", "op": "Conv2D", "input": ["PartitionedCall/transpose_31", "PartitionedCall/split_7"], "device": "/device:CPU:0", "attr": {"padding": {"s": "VkFMSUQ="}, "data_format": {"s": "TkhXQw=="}, "use_cudnn_on_gpu": {"b": true}, "strides": {"list": {"i": ["1", "1", "1", "1"]}}, "T": {"type": "DT_FLOAT"}, "explicit_paddings": {"list": {}}, "dilations": {"list": {"i": ["1", "1", "1", "1"]}}}}, {"name": "PartitionedCall/transpose_35", "op": "Transpose", "input": ["PartitionedCall/convolution_8", "PartitionedCall/transpose_35/perm"], "attr": {"Tperm": {"type": "DT_INT32"}, "T": {"type": "DT_FLOAT"}}}, {"name": "PartitionedCall/transpose_32", "op": "Transpose", "input": ["PartitionedCall/convolution_7", "PartitionedCall/transpose_32/perm"], "attr": {"Tperm": {"type": "DT_INT32"}, "T": {"type": "DT_FLOAT"}}}, {"name": "PartitionedCall/Mean", "op": "Mean", "input": ["PartitionedCall/transpose_35", "ConstantFolding/PartitionedCall/split_9-folded-1"], "attr": {"T": {"type": "DT_FLOAT"}, "Tidx": {"type": "DT_INT32"}, "keep_dims": {"b": true}}}, {"name": "PartitionedCall/onnx_tf_prefix_p2o.BatchNormalization.10/mul_1", "op": "Mul", "input": ["PartitionedCall/transpose_32", "PartitionedCall/onnx_tf_prefix_p2o.BatchNormalization.10/mul"], "attr": {"T": {"type": "DT_FLOAT"}}}, {"name": "PartitionedCall/transpose_37", "op": "Transpose", "input": ["PartitionedCall/Mean", "PartitionedCall/transpose_37/perm"], "attr": {"Tperm": {"type": "DT_INT32"}, "T": {"type": "DT_FLOAT"}}}, {"name": "PartitionedCall/onnx_tf_prefix_p2o.BatchNormalization.10/add_1", "op": "AddV2", "input": ["PartitionedCall/onnx_tf_prefix_p2o.BatchNormalization.10/mul_1", "PartitionedCall/onnx_tf_prefix_p2o.BatchNormalization.10/sub"], "attr": {"T": {"type": "DT_FLOAT"}}}, {"name": "PartitionedCall/Add_1", "op": "_FusedConv2D", "input": ["PartitionedCall/transpose_37", "PartitionedCall/split_10", "PartitionedCall/onnx_tf_prefix_sng_Constant_239"], "device": "/device:CPU:0", "attr": {"num_host_args": {"i": "0"}, "data_format": {"s": "TkhXQw=="}, "filter_format": {"s": "SFdJTw=="}, "fused_ops": {"list": {"s": ["Qmlhc0FkZA=="]}}, "num_args": {"i": "1"}, "strides": {"list": {"i": ["1", "1", "1", "1"]}}, "TArgs": {"list": {"type": ["DT_FLOAT"]}}, "padding": {"s": "VkFMSUQ="}, "use_cudnn_on_gpu": {"b": true}, "leakyrelu_alpha": {"f": 0.2}, "epsilon": {"f": 0.0}, "T": {"type": "DT_FLOAT"}, "explicit_paddings": {"list": {}}, "dilations": {"list": {"i": ["1", "1", "1", "1"]}}}}, {"name": "PartitionedCall/onnx_tf_prefix_p2o.Relu.6", "op": "Relu", "input": ["PartitionedCall/onnx_tf_prefix_p2o.BatchNormalization.10/add_1"], "attr": {"T": {"type": "DT_FLOAT"}}}, {"name": "PartitionedCall/transpose_38", "op": "Transpose", "input": ["PartitionedCall/Add_1", "PartitionedCall/transpose_38/perm"], "attr": {"Tperm": {"type": "DT_INT32"}, "T": {"type": "DT_FLOAT"}}}, {"name": "PartitionedCall/Pad_4", "op": "Pad", "input": ["PartitionedCall/onnx_tf_prefix_p2o.Relu.6", "PartitionedCall/Const_6"], "attr": {"Tpaddings": {"type": "DT_INT32"}, "T": {"type": "DT_FLOAT"}}}, {"name": "PartitionedCall/onnx_tf_prefix_p2o.Relu.15", "op": "Relu", "input": ["PartitionedCall/transpose_38"], "attr": {"T": {"type": "DT_FLOAT"}}}, {"name": "PartitionedCall/transpose_40", "op": "Transpose", "input": ["PartitionedCall/Pad_4", "PartitionedCall/transpose_40/perm"], "attr": {"Tperm": {"type": "DT_INT32"}, "T": {"type": "DT_FLOAT"}}}, {"name": "PartitionedCall/transpose_43", "op": "Transpose", "input": ["PartitionedCall/onnx_tf_prefix_p2o.Relu.15", "PartitionedCall/transpose_43/perm"], "attr": {"Tperm": {"type": "DT_INT32"}, "T": {"type": "DT_FLOAT"}}}, {"name": "PartitionedCall/depthwise_3", "op": "DepthwiseConv2dNative", "input": ["PartitionedCall/transpose_40", "PartitionedCall/Reshape_47"], "attr": {"padding": {"s": "VkFMSUQ="}, "data_format": {"s": "TkhXQw=="}, "T": {"type": "DT_FLOAT"}, "explicit_paddings": {"list": {}}, "dilations": {"list": {"i": ["1", "1", "1", "1"]}}, "strides": {"list": {"i": ["1", "2", "2", "1"]}}}}, {"name": "PartitionedCall/Add_2", "op": "_FusedConv2D", "input": ["PartitionedCall/transpose_43", "PartitionedCall/split_11", "PartitionedCall/onnx_tf_prefix_sng_Constant_241"], "device": "/device:CPU:0", "attr": {"num_host_args": {"i": "0"}, "data_format": {"s": "TkhXQw=="}, "filter_format": {"s": "SFdJTw=="}, "strides": {"list": {"i": ["1", "1", "1", "1"]}}, "num_args": {"i": "1"}, "fused_ops": {"list": {"s": ["Qmlhc0FkZA=="]}}, "TArgs": {"list": {"type": ["DT_FLOAT"]}}, "padding": {"s": "VkFMSUQ="}, "use_cudnn_on_gpu": {"b": true}, "leakyrelu_alpha": {"f": 0.2}, "epsilon": {"f": 0.0}, "T": {"type": "DT_FLOAT"}, "explicit_paddings": {"list": {}}, "dilations": {"list": {"i": ["1", "1", "1", "1"]}}}}, {"name": "PartitionedCall/transpose_41", "op": "Transpose", "input": ["PartitionedCall/depthwise_3", "PartitionedCall/transpose_41/perm"], "attr": {"Tperm": {"type": "DT_INT32"}, "T": {"type": "DT_FLOAT"}}}, {"name": "PartitionedCall/transpose_44", "op": "Transpose", "input": ["PartitionedCall/Add_2", "PartitionedCall/transpose_44/perm"], "attr": {"Tperm": {"type": "DT_INT32"}, "T": {"type": "DT_FLOAT"}}}, {"name": "PartitionedCall/onnx_tf_prefix_p2o.BatchNormalization.11/mul_1", "op": "Mul", "input": ["PartitionedCall/transpose_41", "PartitionedCall/onnx_tf_prefix_p2o.BatchNormalization.11/mul"], "attr": {"T": {"type": "DT_FLOAT"}}}, {"name": "PartitionedCall/mul_2", "op": "Mul", "input": ["PartitionedCall/transpose_44", "PartitionedCall/mul_2/y"], "attr": {"T": {"type": "DT_FLOAT"}}}, {"name": "PartitionedCall/onnx_tf_prefix_p2o.BatchNormalization.11/add_1", "op": "AddV2", "input": ["PartitionedCall/onnx_tf_prefix_p2o.BatchNormalization.11/mul_1", "PartitionedCall/onnx_tf_prefix_p2o.BatchNormalization.11/sub"], "attr": {"T": {"type": "DT_FLOAT"}}}, {"name": "PartitionedCall/add_3", "op": "AddV2", "input": ["PartitionedCall/mul_2", "PartitionedCall/add_3/y"], "attr": {"T": {"type": "DT_FLOAT"}}}, {"name": "PartitionedCall/onnx_tf_prefix_p2o.Relu.7", "op": "Relu", "input": ["PartitionedCall/onnx_tf_prefix_p2o.BatchNormalization.11/add_1"], "attr": {"T": {"type": "DT_FLOAT"}}}, {"name": "PartitionedCall/clip_by_value/Minimum", "op": "Minimum", "input": ["PartitionedCall/add_3", "PartitionedCall/clip_by_value/Minimum/y"], "attr": {"T": {"type": "DT_FLOAT"}}}, {"name": "PartitionedCall/transpose_46", "op": "Transpose", "input": ["PartitionedCall/onnx_tf_prefix_p2o.Relu.7", "PartitionedCall/transpose_46/perm"], "attr": {"Tperm": {"type": "DT_INT32"}, "T": {"type": "DT_FLOAT"}}}, {"name": "PartitionedCall/clip_by_value", "op": "Maximum", "input": ["PartitionedCall/clip_by_value/Minimum", "PartitionedCall/clip_by_value/y"], "attr": {"T": {"type": "DT_FLOAT"}}}, {"name": "PartitionedCall/convolution_11", "op": "Conv2D", "input": ["PartitionedCall/transpose_46", "PartitionedCall/split_12"], "device": "/device:CPU:0", "attr": {"padding": {"s": "VkFMSUQ="}, "data_format": {"s": "TkhXQw=="}, "use_cudnn_on_gpu": {"b": true}, "strides": {"list": {"i": ["1", "1", "1", "1"]}}, "T": {"type": "DT_FLOAT"}, "explicit_paddings": {"list": {}}, "dilations": {"list": {"i": ["1", "1", "1", "1"]}}}}, {"name": "PartitionedCall/onnx_tf_prefix_p2o.Mul.6", "op": "Mul", "input": ["PartitionedCall/transpose_35", "PartitionedCall/clip_by_value"], "attr": {"T": {"type": "DT_FLOAT"}}}, {"name": "PartitionedCall/transpose_47", "op": "Transpose", "input": ["PartitionedCall/convolution_11", "PartitionedCall/transpose_47/perm"], "attr": {"Tperm": {"type": "DT_INT32"}, "T": {"type": "DT_FLOAT"}}}, {"name": "PartitionedCall/onnx_tf_prefix_p2o.Add.42", "op": "AddV2", "input": ["PartitionedCall/transpose_35", "PartitionedCall/onnx_tf_prefix_p2o.Mul.6"], "attr": {"T": {"type": "DT_FLOAT"}}}, {"name": "PartitionedCall/onnx_tf_prefix_p2o.BatchNormalization.12/mul_1", "op": "Mul", "input": ["PartitionedCall/transpose_47", "PartitionedCall/onnx_tf_prefix_p2o.BatchNormalization.12/mul"], "attr": {"T": {"type": "DT_FLOAT"}}}, {"name": "PartitionedCall/onnx_tf_prefix_p2o.BatchNormalization.12/add_1", "op": "AddV2", "input": ["PartitionedCall/onnx_tf_prefix_p2o.BatchNormalization.12/mul_1", "PartitionedCall/onnx_tf_prefix_p2o.BatchNormalization.12/sub"], "attr": {"T": {"type": "DT_FLOAT"}}}, {"name": "PartitionedCall/transpose_49", "op": "Transpose", "input": ["PartitionedCall/onnx_tf_prefix_p2o.BatchNormalization.12/add_1", "PartitionedCall/transpose_49/perm"], "attr": {"Tperm": {"type": "DT_INT32"}, "T": {"type": "DT_FLOAT"}}}, {"name": "PartitionedCall/convolution_12", "op": "Conv2D", "input": ["PartitionedCall/transpose_49", "PartitionedCall/split_13"], "device": "/device:CPU:0", "attr": {"padding": {"s": "VkFMSUQ="}, "data_format": {"s": "TkhXQw=="}, "strides": {"list": {"i": ["1", "1", "1", "1"]}}, "use_cudnn_on_gpu": {"b": true}, "T": {"type": "DT_FLOAT"}, "explicit_paddings": {"list": {}}, "dilations": {"list": {"i": ["1", "1", "1", "1"]}}}}, {"name": "PartitionedCall/transpose_50", "op": "Transpose", "input": ["PartitionedCall/convolution_12", "PartitionedCall/transpose_50/perm"], "attr": {"Tperm": {"type": "DT_INT32"}, "T": {"type": "DT_FLOAT"}}}, {"name": "PartitionedCall/onnx_tf_prefix_p2o.BatchNormalization.13/mul_1", "op": "Mul", "input": ["PartitionedCall/transpose_50", "PartitionedCall/onnx_tf_prefix_p2o.BatchNormalization.13/mul"], "attr": {"T": {"type": "DT_FLOAT"}}}, {"name": "PartitionedCall/onnx_tf_prefix_p2o.BatchNormalization.13/add_1", "op": "AddV2", "input": ["PartitionedCall/onnx_tf_prefix_p2o.BatchNormalization.13/mul_1", "PartitionedCall/onnx_tf_prefix_p2o.BatchNormalization.13/sub"], "attr": {"T": {"type": "DT_FLOAT"}}}, {"name": "PartitionedCall/onnx_tf_prefix_p2o.Relu.8", "op": "Relu", "input": ["PartitionedCall/onnx_tf_prefix_p2o.BatchNormalization.13/add_1"], "attr": {"T": {"type": "DT_FLOAT"}}}, {"name": "PartitionedCall/Pad_5", "op": "Pad", "input": ["PartitionedCall/onnx_tf_prefix_p2o.Relu.8", "PartitionedCall/Const_7"], "attr": {"Tpaddings": {"type": "DT_INT32"}, "T": {"type": "DT_FLOAT"}}}, {"name": "PartitionedCall/transpose_52", "op": "Transpose", "input": ["PartitionedCall/Pad_5", "PartitionedCall/transpose_52/perm"], "attr": {"Tperm": {"type": "DT_INT32"}, "T": {"type": "DT_FLOAT"}}}, {"name": "PartitionedCall/depthwise_4", "op": "DepthwiseConv2dNative", "input": ["PartitionedCall/transpose_52", "PartitionedCall/Reshape_60"], "attr": {"padding": {"s": "VkFMSUQ="}, "data_format": {"s": "TkhXQw=="}, "T": {"type": "DT_FLOAT"}, "explicit_paddings": {"list": {}}, "dilations": {"list": {"i": ["1", "1", "1", "1"]}}, "strides": {"list": {"i": ["1", "1", "1", "1"]}}}}, {"name": "PartitionedCall/transpose_53", "op": "Transpose", "input": ["PartitionedCall/depthwise_4", "PartitionedCall/transpose_53/perm"], "attr": {"Tperm": {"type": "DT_INT32"}, "T": {"type": "DT_FLOAT"}}}, {"name": "PartitionedCall/onnx_tf_prefix_p2o.BatchNormalization.14/mul_1", "op": "Mul", "input": ["PartitionedCall/transpose_53", "PartitionedCall/onnx_tf_prefix_p2o.BatchNormalization.14/mul"], "attr": {"T": {"type": "DT_FLOAT"}}}, {"name": "PartitionedCall/onnx_tf_prefix_p2o.BatchNormalization.14/add_1", "op": "AddV2", "input": ["PartitionedCall/onnx_tf_prefix_p2o.BatchNormalization.14/mul_1", "PartitionedCall/onnx_tf_prefix_p2o.BatchNormalization.14/sub"], "attr": {"T": {"type": "DT_FLOAT"}}}, {"name": "PartitionedCall/onnx_tf_prefix_p2o.Relu.9", "op": "Relu", "input": ["PartitionedCall/onnx_tf_prefix_p2o.BatchNormalization.14/add_1"], "attr": {"T": {"type": "DT_FLOAT"}}}, {"name": "PartitionedCall/transpose_55", "op": "Transpose", "input": ["PartitionedCall/onnx_tf_prefix_p2o.Relu.9", "PartitionedCall/transpose_55/perm"], "attr": {"Tperm": {"type": "DT_INT32"}, "T": {"type": "DT_FLOAT"}}}, {"name": "PartitionedCall/convolution_13", "op": "Conv2D", "input": ["PartitionedCall/transpose_55", "PartitionedCall/split_14"], "device": "/device:CPU:0", "attr": {"padding": {"s": "VkFMSUQ="}, "data_format": {"s": "TkhXQw=="}, "use_cudnn_on_gpu": {"b": true}, "strides": {"list": {"i": ["1", "1", "1", "1"]}}, "T": {"type": "DT_FLOAT"}, "explicit_paddings": {"list": {}}, "dilations": {"list": {"i": ["1", "1", "1", "1"]}}}}, {"name": "PartitionedCall/transpose_56", "op": "Transpose", "input": ["PartitionedCall/convolution_13", "PartitionedCall/transpose_56/perm"], "attr": {"Tperm": {"type": "DT_INT32"}, "T": {"type": "DT_FLOAT"}}}, {"name": "PartitionedCall/onnx_tf_prefix_p2o.BatchNormalization.15/mul_1", "op": "Mul", "input": ["PartitionedCall/transpose_56", "PartitionedCall/onnx_tf_prefix_p2o.BatchNormalization.15/mul"], "attr": {"T": {"type": "DT_FLOAT"}}}, {"name": "PartitionedCall/onnx_tf_prefix_p2o.BatchNormalization.15/add_1", "op": "AddV2", "input": ["PartitionedCall/onnx_tf_prefix_p2o.BatchNormalization.15/mul_1", "PartitionedCall/onnx_tf_prefix_p2o.BatchNormalization.15/sub"], "attr": {"T": {"type": "DT_FLOAT"}}}, {"name": "PartitionedCall/onnx_tf_prefix_p2o.Add.4", "op": "AddV2", "input": ["PartitionedCall/onnx_tf_prefix_p2o.BatchNormalization.12/add_1", "PartitionedCall/onnx_tf_prefix_p2o.BatchNormalization.15/add_1"], "attr": {"T": {"type": "DT_FLOAT"}}}, {"name": "PartitionedCall/transpose_58", "op": "Transpose", "input": ["PartitionedCall/onnx_tf_prefix_p2o.Add.4", "PartitionedCall/transpose_58/perm"], "attr": {"Tperm": {"type": "DT_INT32"}, "T": {"type": "DT_FLOAT"}}}, {"name": "PartitionedCall/convolution_14", "op": "Conv2D", "input": ["PartitionedCall/transpose_58", "PartitionedCall/split_15"], "device": "/device:CPU:0", "attr": {"padding": {"s": "VkFMSUQ="}, "data_format": {"s": "TkhXQw=="}, "use_cudnn_on_gpu": {"b": true}, "strides": {"list": {"i": ["1", "1", "1", "1"]}}, "T": {"type": "DT_FLOAT"}, "explicit_paddings": {"list": {}}, "dilations": {"list": {"i": ["1", "1", "1", "1"]}}}}, {"name": "PartitionedCall/transpose_59", "op": "Transpose", "input": ["PartitionedCall/convolution_14", "PartitionedCall/transpose_59/perm"], "attr": {"Tperm": {"type": "DT_INT32"}, "T": {"type": "DT_FLOAT"}}}, {"name": "PartitionedCall/onnx_tf_prefix_p2o.BatchNormalization.16/mul_1", "op": "Mul", "input": ["PartitionedCall/transpose_59", "PartitionedCall/onnx_tf_prefix_p2o.BatchNormalization.16/mul"], "attr": {"T": {"type": "DT_FLOAT"}}}, {"name": "PartitionedCall/onnx_tf_prefix_p2o.BatchNormalization.16/add_1", "op": "AddV2", "input": ["PartitionedCall/onnx_tf_prefix_p2o.BatchNormalization.16/mul_1", "PartitionedCall/onnx_tf_prefix_p2o.BatchNormalization.16/sub"], "attr": {"T": {"type": "DT_FLOAT"}}}, {"name": "PartitionedCall/onnx_tf_prefix_p2o.Relu.10", "op": "Relu", "input": ["PartitionedCall/onnx_tf_prefix_p2o.BatchNormalization.16/add_1"], "attr": {"T": {"type": "DT_FLOAT"}}}, {"name": "PartitionedCall/Pad_6", "op": "Pad", "input": ["PartitionedCall/onnx_tf_prefix_p2o.Relu.10", "PartitionedCall/Const_8"], "attr": {"Tpaddings": {"type": "DT_INT32"}, "T": {"type": "DT_FLOAT"}}}, {"name": "PartitionedCall/transpose_61", "op": "Transpose", "input": ["PartitionedCall/Pad_6", "PartitionedCall/transpose_61/perm"], "attr": {"Tperm": {"type": "DT_INT32"}, "T": {"type": "DT_FLOAT"}}}, {"name": "PartitionedCall/depthwise_5", "op": "DepthwiseConv2dNative", "input": ["PartitionedCall/transpose_61", "PartitionedCall/Reshape_73"], "attr": {"padding": {"s": "VkFMSUQ="}, "data_format": {"s": "TkhXQw=="}, "T": {"type": "DT_FLOAT"}, "explicit_paddings": {"list": {}}, "dilations": {"list": {"i": ["1", "1", "1", "1"]}}, "strides": {"list": {"i": ["1", "1", "1", "1"]}}}}, {"name": "PartitionedCall/transpose_62", "op": "Transpose", "input": ["PartitionedCall/depthwise_5", "PartitionedCall/transpose_62/perm"], "attr": {"Tperm": {"type": "DT_INT32"}, "T": {"type": "DT_FLOAT"}}}, {"name": "PartitionedCall/onnx_tf_prefix_p2o.BatchNormalization.17/mul_1", "op": "Mul", "input": ["PartitionedCall/transpose_62", "PartitionedCall/onnx_tf_prefix_p2o.BatchNormalization.17/mul"], "attr": {"T": {"type": "DT_FLOAT"}}}, {"name": "PartitionedCall/onnx_tf_prefix_p2o.BatchNormalization.17/add_1", "op": "AddV2", "input": ["PartitionedCall/onnx_tf_prefix_p2o.BatchNormalization.17/mul_1", "PartitionedCall/onnx_tf_prefix_p2o.BatchNormalization.17/sub"], "attr": {"T": {"type": "DT_FLOAT"}}}, {"name": "PartitionedCall/onnx_tf_prefix_p2o.Relu.11", "op": "Relu", "input": ["PartitionedCall/onnx_tf_prefix_p2o.BatchNormalization.17/add_1"], "attr": {"T": {"type": "DT_FLOAT"}}}, {"name": "PartitionedCall/transpose_64", "op": "Transpose", "input": ["PartitionedCall/onnx_tf_prefix_p2o.Relu.11", "PartitionedCall/transpose_64/perm"], "attr": {"Tperm": {"type": "DT_INT32"}, "T": {"type": "DT_FLOAT"}}}, {"name": "PartitionedCall/convolution_15", "op": "Conv2D", "input": ["PartitionedCall/transpose_64", "PartitionedCall/split_16"], "device": "/device:CPU:0", "attr": {"padding": {"s": "VkFMSUQ="}, "data_format": {"s": "TkhXQw=="}, "strides": {"list": {…
 "AddV2", "input": ["PartitionedCall/transpose_233", "PartitionedCall/onnx_tf_prefix_sng_Constant_286"], "attr": {"T": {"type": "DT_FLOAT"}}}, {"name": "PartitionedCall/onnx_tf_prefix_p2o.Sigmoid.0", "op": "Sigmoid", "input": ["PartitionedCall/onnx_tf_prefix_p2o.Add.76"], "attr": {"T": {"type": "DT_FLOAT"}}}, {"name": "Identity", "op": "Identity", "input": ["PartitionedCall/onnx_tf_prefix_p2o.Sigmoid.0"], "attr": {"T": {"type": "DT_FLOAT"}}}], "library": {}, "versions": {"producer": 1645}}, "weightsManifest": [{"paths": ["group1-shard1of1.bin"], "weights": [{"name": "PartitionedCall/Slice_1/begin", "shape": [4], "dtype": "int32"}, {"name": "PartitionedCall/strided_slice_22/stack", "shape": [1], "dtype": "int32"}, {"name": "PartitionedCall/strided_slice_22/stack_1", "shape": [1], "dtype": "int32"}, {"name": "PartitionedCall/strided_slice_22/stack_2", "shape": [1], "dtype": "int32"}, {"name": "PartitionedCall/strided_slice_23/stack", "shape": [1], "dtype": "int32"}, {"name": "PartitionedCall/strided_slice_23/stack_1", "shape": [1], "dtype": "int32"}, {"name": "PartitionedCall/strided_slice_23/stack_2", "shape": [1], "dtype": "int32"}, {"name": "PartitionedCall/strided_slice_24/stack", "shape": [1], "dtype": "int32"}, {"name": "PartitionedCall/strided_slice_24/stack_1", "shape": [1], "dtype": "int32"}, {"name": "PartitionedCall/strided_slice_24/stack_2", "shape": [1], "dtype": "int32"}, {"name": "PartitionedCall/strided_slice_21/stack", "shape": [1], "dtype": "int32"}, {"name": "PartitionedCall/strided_slice_21/stack_1", "shape": [1], "dtype": "int32"}, {"name": "PartitionedCall/strided_slice_21/stack_2", "shape": [1], "dtype": "int32"}, {"name": "PartitionedCall/mul_56/x", "shape": [], "dtype": "int32"}, {"name": "PartitionedCall/strided_slice_19/stack", "shape": [1], "dtype": "int32"}, {"name": "PartitionedCall/strided_slice_19/stack_1", "shape": [1], "dtype": "int32"}, {"name": "PartitionedCall/strided_slice_19/stack_2", "shape": [1], "dtype": "int32"}, {"name": "PartitionedCall/sub_14/y", "shape": [], "dtype": "int32"}, {"name": "PartitionedCall/add_48", "shape": [], "dtype": "int32"}, {"name": "PartitionedCall/mul_57/x", "shape": [], "dtype": "int32"}, {"name": "PartitionedCall/strided_slice_20/stack", "shape": [1], "dtype": "int32"}, {"name": "PartitionedCall/strided_slice_20/stack_1", "shape": [1], "dtype": "int32"}, {"name": "PartitionedCall/strided_slice_20/stack_2", "shape": [1], "dtype": "int32"}, {"name": "PartitionedCall/sub_15/y", "shape": [], "dtype": "int32"}, {"name": "PartitionedCall/add_50", "shape": [], "dtype": "int32"}, {"name": "PartitionedCall/conv2d_transpose_1/input_sizes/3", "shape": [], "dtype": "int32"}, {"name": "PartitionedCall/split_66", "shape": [2, 2, 1, 24], "dtype": "float32"}, {"name": "PartitionedCall/Slice/begin", "shape": [4], "dtype": "int32"}, {"name": "PartitionedCall/strided_slice_15/stack", "shape": [1], "dtype": "int32"}, {"name": "PartitionedCall/strided_slice_15/stack_1", "shape": [1], "dtype": "int32"}, {"name": "PartitionedCall/strided_slice_15/stack_2", "shape": [1], "dtype": "int32"}, {"name": "PartitionedCall/strided_slice_16/stack", "shape": [1], "dtype": "int32"}, {"name": "PartitionedCall/strided_slice_16/stack_1", "shape": [1], "dtype": "int32"}, {"name": "PartitionedCall/strided_slice_16/stack_2", "shape": [1], "dtype": "int32"}, {"name": "PartitionedCall/strided_slice_17/stack", "shape": [1], "dtype": "int32"}, {"name": "PartitionedCall/strided_slice_17/stack_1", "shape": [1], "dtype": "int32"}, {"name": "PartitionedCall/strided_slice_17/stack_2", "shape": [1], "dtype": "int32"}, {"name": "PartitionedCall/strided_slice_14/stack", "shape": [1], "dtype": "int32"}, {"name": "PartitionedCall/strided_slice_14/stack_1", "shape": [1], "dtype": "int32"}, {"name": "PartitionedCall/strided_slice_14/stack_2", "shape": [1], "dtype": "int32"}, {"name": "PartitionedCall/mul_54/x", "shape": [], "dtype": "int32"}, {"name": "PartitionedCall/strided_slice_12/stack", "shape": [1], "dtype": "int32"}, {"name": "PartitionedCall/strided_slice_12/stack_1", "shape": [1], "dtype": "int32"}, {"name": "PartitionedCall/strided_slice_12/stack_2", "shape": [1], "dtype": "int32"}, {"name": "PartitionedCall/sub_8/y", "shape": [], "dtype": "int32"}, {"name": "PartitionedCall/add_44", "shape": [], "dtype": "int32"}, {"name": "PartitionedCall/mul_55/x", "shape": [], "dtype": "int32"}, {"name": "PartitionedCall/strided_slice_13/stack", "shape": [1], "dtype": "int32"}, {"name": "PartitionedCall/strided_slice_13/stack_1", "shape": [1], "dtype": "int32"}, {"name": "PartitionedCall/strided_slice_13/stack_2", "shape": [1], "dtype": "int32"}, {"name": "PartitionedCall/sub_9/y", "shape": [], "dtype": "int32"}, {"name": "PartitionedCall/add_46", "shape": [], "dtype": "int32"}, {"name": "PartitionedCall/conv2d_transpose/input_sizes/3", "shape": [], "dtype": "int32"}, {"name": "PartitionedCall/split_65", "shape": [2, 2, 24, 24], "dtype": "float32"}, {"name": "PartitionedCall/transpose_216/perm", "shape": [4], "dtype": "int32"}, {"name": "PartitionedCall/strided_slice_6", "shape": [2], "dtype": "float32"}, {"name": "PartitionedCall/Const_57", "shape": [4, 2], "dtype": "int32"}, {"name": "PartitionedCall/transpose_180/perm", "shape": [4], "dtype": "int32"}, {"name": "PartitionedCall/split_48", "shape": [3, 3, 96, 24], "dtype": "float32"}, {"name": "PartitionedCall/transpose_181/perm", "shape": [4], "dtype": "int32"}, {"name": "ConstantFolding/PartitionedCall/split_49-folded-1", "shape": [2], "dtype": "int32"}, {"name": "PartitionedCall/transpose_185/perm", "shape": [4], "dtype": "int32"}, {"name": "PartitionedCall/split_50", "shape": [1, 1, 24, 6], "dtype": "float32"}, {"name": "PartitionedCall/onnx_tf_prefix_sng_Constant_276", "shape": [6], "dtype": "float32"}, {"name": "PartitionedCall/transpose_186/perm", "shape": [4], "dtype": "int32"}, {"name": "PartitionedCall/transpose_193/perm", "shape": [4], "dtype": "int32"}, {"name": "PartitionedCall/split_53", "shape": [1, 1, 6, 24], "dtype": "float32"}, {"name": "PartitionedCall/onnx_tf_prefix_sng_Constant_279", "shape": [24], "dtype": "float32"}, {"name": "PartitionedCall/transpose_194/perm", "shape": [4], "dtype": "int32"}, {"name": "PartitionedCall/mul_47/y", "shape": [], "dtype": "float32"}, {"name": "PartitionedCall/add_35/y", "shape": [], "dtype": "float32"}, {"name": "PartitionedCall/clip_by_value_4/Minimum/y", "shape": [], "dtype": "float32"}, {"name": "PartitionedCall/clip_by_value_4/y", "shape": [], "dtype": "float32"}, {"name": "PartitionedCall/strided_slice_7/stack", "shape": [1], "dtype": "int32"}, {"name": "PartitionedCall/strided_slice_7/stack_1", "shape": [1], "dtype": "int32"}, {"name": "PartitionedCall/strided_slice_7/stack_2", "shape": [1], "dtype": "int32"}, {"name": "PartitionedCall/transpose_217/perm", "shape": [4], "dtype": "int32"}, {"name": "PartitionedCall/transpose_221/perm", "shape": [4], "dtype": "int32"}, {"name": "PartitionedCall/strided_slice_8", "shape": [2], "dtype": "float32"}, {"name": "PartitionedCall/Const_59", "shape": [4, 2], "dtype": "int32"}, {"name": "PartitionedCall/transpose_188/perm", "shape": [4], "dtype": "int32"}, {"name": "PartitionedCall/split_51", "shape": [3, 3, 96, 24], "dtype": "float32"}, {"name": "PartitionedCall/transpose_189/perm", "shape": [4], "dtype": "int32"}, {"name": "ConstantFolding/PartitionedCall/split_52-folded-1", "shape": [2], "dtype": "int32"}, {"name": "PartitionedCall/transpose_196/perm", "shape": [4], "dtype": "int32"}, {"name": "PartitionedCall/split_54", "shape": [1, 1, 24, 6], "dtype": "float32"}, {"name": "PartitionedCall/onnx_tf_prefix_sng_Constant_266", "shape": [6], "dtype": "float32"}, {"name": "PartitionedCall/transpose_197/perm", "shape": [4], "dtype": "int32"}, {"name": "PartitionedCall/transpose_202/perm", "shape": [4], "dtype": "int32"}, {"name": "PartitionedCall/split_57", "shape": [1, 1, 6, 24], "dtype": "float32"}, {"name": "PartitionedCall/onnx_tf_prefix_sng_Constant_268", "shape": [24], "dtype": "float32"}, {"name": "PartitionedCall/transpose_203/perm", "shape": [4], "dtype": "int32"}, {"name": "PartitionedCall/mul_48/y", "shape": [], "dtype": "float32"}, {"name": "PartitionedCall/add_38/y", "shape": [], "dtype": "float32"}, {"name": "PartitionedCall/clip_by_value_5/Minimum/y", "shape": [], "dtype": "float32"}, {"name": "PartitionedCall/clip_by_value_5/y", "shape": [], "dtype": "float32"}, {"name": "PartitionedCall/strided_slice_9/stack", "shape": [1], "dtype": "int32"}, {"name": "PartitionedCall/strided_slice_9/stack_1", "shape": [1], "dtype": "int32"}, {"name": "PartitionedCall/strided_slice_9/stack_2", "shape": [1], "dtype": "int32"}, {"name": "PartitionedCall/transpose_222/perm", "shape": [4], "dtype": "int32"}, {"name": "PartitionedCall/transpose_223/perm", "shape": [4], "dtype": "int32"}, {"name": "PartitionedCall/strided_slice_10", "shape": [2], "dtype": "float32"}, {"name": "PartitionedCall/Const_61", "shape": [4, 2], "dtype": "int32"}, {"name": "PartitionedCall/transpose_199/perm", "shape": [4], "dtype": "int32"}, {"name": "PartitionedCall/split_55", "shape": [3, 3, 96, 24], "dtype": "float32"}, {"name": "PartitionedCall/transpose_200/perm", "shape": [4], "dtype": "int32"}, {"name": "ConstantFolding/PartitionedCall/split_56-folded-1", "shape": [2], "dtype": "int32"}, {"name": "PartitionedCall/transpose_205/perm", "shape": [4], "dtype": "int32"}, {"name": "PartitionedCall/split_58", "shape": [1, 1, 24, 6], "dtype": "float32"}, {"name": "PartitionedCall/onnx_tf_prefix_sng_Constant_255", "shape": [6], "dtype": "float32"}, {"name": "PartitionedCall/transpose_206/perm", "shape": [4], "dtype": "int32"}, {"name": "PartitionedCall/transpose_211/perm", "shape": [4], "dtype": "int32"}, {"name": "PartitionedCall/split_61", "shape": [1, 1, 6, 24], "dtype": "float32"}, {"name": "PartitionedCall/onnx_tf_prefix_sng_Constant_257", "shape": [24], "dtype": "float32"}, {"name": "PartitionedCall/transpose_212/perm", "shape": [4], "dtype": "int32"}, {"name": "PartitionedCall/mul_50/y", "shape": [], "dtype": "float32"}, {"name": "PartitionedCall/add_41/y", "shape": [], "dtype": "float32"}, {"name": "PartitionedCall/clip_by_value_6/Minimum/y", "shape": [], "dtype": "float32"}, {"name": "PartitionedCall/clip_by_value_6/y", "shape": [], "dtype": "float32"}, {"name": "PartitionedCall/strided_slice_11/stack", "shape": [1], "dtype": "int32"}, {"name": "PartitionedCall/strided_slice_11/stack_1", "shape": [1], "dtype": "int32"}, {"name": "PartitionedCall/strided_slice_11/stack_2", "shape": [1], "dtype": "int32"}, {"name": "PartitionedCall/transpose_224/perm", "shape": [4], "dtype": "int32"}, {"name": "PartitionedCall/transpose_34/perm", "shape": [4], "dtype": "int32"}, {"name": "PartitionedCall/split_8", "shape": [1, 1, 16, 96], "dtype": "float32"}, {"name": "PartitionedCall/transpose_35/perm", "shape": [4], "dtype": "int32"}, {"name": "ConstantFolding/PartitionedCall/split_9-folded-1", "shape": [2], "dtype": "int32"}, {"name": "PartitionedCall/transpose_37/perm", "shape": [4], "dtype": "int32"}, {"name": "PartitionedCall/split_10", "shape": [1, 1, 96, 24], "dtype": "float32"}, {"name": "PartitionedCall/onnx_tf_prefix_sng_Constant_239", "shape": [24], "dtype": "float32"}, {"name": "PartitionedCall/transpose_38/perm", "shape": [4], "dtype": "int32"}, {"name": "PartitionedCall/transpose_43/perm", "shape": [4], "dtype": "int32"}, {"name": "PartitionedCall/split_11", "shape": [1, 1, 24, 96], "dtype": "float32"}, {"name": "PartitionedCall/onnx_tf_prefix_sng_Constant_241", "shape": [96], "dtype": "float32"}, {"name": "PartitionedCall/transpose_44/perm", "shape": [4], "dtype": "int32"}, {"name": "PartitionedCall/mul_2/y", "shape": [], "dtype": "float32"}, {"name": "PartitionedCall/add_3/y", "shape": [], "dtype": "float32"}, {"name": "PartitionedCall/clip_by_value/Minimum/y", "shape": [], "dtype": "float32"}, {"name": "PartitionedCall/clip_by_value/y", "shape": [], "dtype": "float32"}, {"name": "PartitionedCall/transpose_190/perm", "shape": [4], "dtype": "int32"}, {"name": "PartitionedCall/strided_slice_4", "shape": [2], "dtype": "float32"}, {"name": "PartitionedCall/transpose_70/perm", "shape": [4], "dtype": "int32"}, {"name": "PartitionedCall/split_18", "shape": [1, 1, 24, 96], "dtype": "float32"}, {"name": "PartitionedCall/transpose_71/perm", "shape": [4], "dtype": "int32"}, {"name": "ConstantFolding/PartitionedCall/split_19-folded-1", "shape": [2], "dtype": "int32"}, {"name": "PartitionedCall/transpose_73/perm", "shape": [4], "dtype": "int32"}, {"name": "PartitionedCall/split_20", "shape": [1, 1, 96, 24], "dtype": "float32"}, {"name": "PartitionedCall/onnx_tf_prefix_sng_Constant_250", "shape": [24], "dtype": "float32"}, {"name": "PartitionedCall/transpose_74/perm", "shape": [4], "dtype": "int32"}, {"name": "PartitionedCall/transpose_79/perm", "shape": [4], "dtype": "int32"}, {"name": "PartitionedCall/split_21", "shape": [1, 1, 24, 96], "dtype": "float32"}, {"name": "PartitionedCall/onnx_tf_prefix_sng_Constant_252", "shape": [96], "dtype": "float32"}, {"name": "PartitionedCall/transpose_80/perm", "shape": [4], "dtype": "int32"}, {"name": "PartitionedCall/mul_7/y", "shape": [], "dtype": "float32"}, {"name": "PartitionedCall/add_8/y", "shape": [], "dtype": "float32"}, {"name": "PartitionedCall/clip_by_value_1/Minimum/y", "shape": [], "dtype": "float32"}, {"name": "PartitionedCall/clip_by_value_1/y", "shape": [], "dtype": "float32"}, {"name": "PartitionedCall/transpose_182/perm", "shape": [4], "dtype": "int32"}, {"name": "PartitionedCall/strided_slice_2", "shape": [2], "dtype": "float32"}, {"name": "PartitionedCall/transpose_133/perm", "shape": [4], "dtype": "int32"}, {"name": "PartitionedCall/split_34", "shape": [1, 1, 56, 96], "dtype": "float32"}, {"name": "PartitionedCall/transpose_134/perm", "shape": [4], "dtype": "int32"}, {"name": "ConstantFolding/PartitionedCall/split_35-folded-1", "shape": [2], "dtype": "int32"}, {"name": "PartitionedCall/transpose_136/perm", "shape": [4], "dtype": "int32"}, {"name": "PartitionedCall/split_36", "shape": [1, 1, 96, 24], "dtype": "float32"}, {"name": "PartitionedCall/onnx_tf_prefix_sng_Constant_261", "shape": [24], "dtype": "float32"}, {"name": "PartitionedCall/transpose_137/perm", "shape": [4], "dtype": "int32"}, {"name": "PartitionedCall/transpose_142/perm", "shape": [4], "dtype": "int32"}, {"name": "PartitionedCall/split_37", "shape": [1, 1, 24, 96], "dtype": "float32"}, {"name": "PartitionedCall/onnx_tf_prefix_sng_Constant_263", "shape": [96], "dtype": "float32"}, {"name": "PartitionedCall/transpose_143/perm", "shape": [4], "dtype": "int32"}, {"name": "PartitionedCall/mul_32/y", "shape": [], "dtype": "float32"}, {"name": "PartitionedCall/add_23/y", "shape": [], "dtype": "float32"}, {"name": "PartitionedCall/clip_by_value_2/Minimum/y", "shape": [], "dtype": "float32"}, {"name": "PartitionedCall/clip_by_value_2/y", "shape": [], "dtype": "float32"}, {"name": "PartitionedCall/transpose_177/perm", "shape": [4], "dtype": "int32"}, {"name": "PartitionedCall/strided_slice", "shape": [2], "dtype": "float32"}, {"name": "PartitionedCall/Const_54", "shape": [], "dtype": "float32"}, {"name": "PartitionedCall/Const_55", "shape": [], "dtype": "float32"}, {"name": "PartitionedCall/mul_41/x", "shape": [], "dtype": "float32"}, {"name": "PartitionedCall/Const_52", "shape": [], "dtype": "float32"}, {"name": "PartitionedCall/Const_53", "shape": [], "dtype": "float32"}, {"name": "PartitionedCall/mul_39/x", "shape": [], "dtype": "float32"}, {"name": "PartitionedCall/Const_49", "shape": [], "dtype": "float32"}, {"name": "PartitionedCall/Const_50", "shape": [], "dtype": "float32"}, {"name": "PartitionedCall/mul_37/x", "shape": [], "dtype": "float32"}, {"name": "PartitionedCall/Const_47", "shape": [], "dtype": "float32"}, {"name": "PartitionedCall/Const_48", "shape": [], "dtype": "float32"}, {"name": "PartitionedCall/mul_35/x", "shape": [], "dtype": "float32"}, {"name": "PartitionedCall/Const_44", "shape": [], "dtype": "float32"}, {"name": "PartitionedCall/Const_45", "shape": [], "dtype": "float32"}, {"name": "PartitionedCall/mul_33/x", "shape": [], "dtype": "float32"}, {"name": "PartitionedCall/Const_42", "shape": [], "dtype": "float32"}, {"name": "PartitionedCall/Const_43", "shape": [], "dtype": "float32"}, {"name": "PartitionedCall/mul_30/x", "shape": [], "dtype": "float32"}, {"name": "PartitionedCall/Const_39", "shape": [], "dtype": "float32"}, {"name": "PartitionedCall/Const_40", "shape": [], "dtype": "float32"}, {"name": "PartitionedCall/mul_28/x", "shape": [], "dtype": "float32"}, {"name": "PartitionedCall/Const_37", "shape": [], "dtype": "float32"}, {"name": "PartitionedCall/Const_38", "shape": [], "dtype": "float32"}, {"name": "PartitionedCall/mul_26/x", "shape": [], "dtype": "float32"}, {"name": "PartitionedCall/Const_34", "shape": [], "dtype": "float32"}, {"name": "PartitionedCall/Const_35", "shape": [], "dtype": "float32"}, {"name": "PartitionedCall/mul_24/x", "shape": [], "dtype": "float32"}, {"name": "PartitionedCall/Const_32", "shape": [], "dtype": "float32"}, {"name": "PartitionedCall/Const_33", "shape": [], "dtype": "float32"}, {"name": "PartitionedCall/mul_22/x", "shape": [], "dtype": "float32"}, {"name": "PartitionedCall/Const_29", "shape": [], "dtype": "float32"}, {"name": "PartitionedCall/Const_30", "shape": [], "dtype": "float32"}, {"name": "PartitionedCall/mul_20/x", "shape": [], "dtype": "float32"}, {"name": "PartitionedCall/Const_27", "shape": [], "dtype": "float32"}, {"name": "PartitionedCall/Const_28", "shape": [], "dtype": "float32"}, {"name": "PartitionedCall/mul_18/x", "shape": [], "dtype": "float32"}, {"name": "PartitionedCall/Const_24", "shape": [], "dtype": "float32"}, {"name": "PartitionedCall/Const_25", "shape": [], "dtype": "float32"}, {"name": "PartitionedCall/mul_16/x", "shape": [], "dtype": "float32"}, {"name": "PartitionedCall/Const_22", "shape": [], "dtype": "float32"}, {"name": "PartitionedCall/Const_23", "shape": [], "dtype": "float32"}, {"name": "PartitionedCall/mul_14/x", "shape": [], "dtype": "float32"}, {"name": "PartitionedCall/Const_19", "shape": [], "dtype": "float32"}, {"name": "PartitionedCall/Const_20", "shape": [], "dtype": "float32"}, {"name": "PartitionedCall/mul_12/x", "shape": [], "dtype": "float32"}, {"name": "PartitionedCall/Const_17", "shape": [], "dtype": "float32"}, {"name": "PartitionedCall/Const_18", "shape": [], "dtype": "float32"}, {"name": "PartitionedCall/mul_10/x", "shape": [], "dtype": "float32"}, {"name": "PartitionedCall/Const_14", "shape": [], "dtype": "float32"}, {"name": "PartitionedCall/Const_15", "shape": [], "dtype": "float32"}, {"name": "PartitionedCall/mul_8/x", "shape": [], "dtype": "float32"}, {"name": "PartitionedCall/Const_12", "shape": [], "dtype": "float32"}, {"name": "PartitionedCall/Const_13", "shape": [], "dtype": "float32"}, {"name": "PartitionedCall/mul_5/x", "shape": [], "dtype": "float32"}, {"name": "PartitionedCall/Const_9", "shape": [], "dtype": "float32"}, {"name": "PartitionedCall/Const_10", "shape": [], "dtype": "float32"}, {"name": "PartitionedCall/mul_3/x", "shape": [], "dtype": "float32"}, {"name": "PartitionedCall/Const_1", "shape": [], "dtype": "float32"}, {"name": "PartitionedCall/Const_2", "shape": [], "dtype": "float32"}, {"name": "PartitionedCall/mul/x", "shape": [], "dtype": "float32"}, {"name": "PartitionedCall/Const", "shape": [4, 2], "dtype": "int32"}, {"name": "PartitionedCall/transpose_1/perm", "shape": [4], "dtype": "int32"}, {"name": "PartitionedCall/split", "shape": [3, 3, 3, 8], "dtype": "float32"}, {"name": "PartitionedCall/transpose_2/perm", "shape": [4], "dtype": "int32"}, {"name": "PartitionedCall/onnx_tf_prefix_p2o.BatchNormalization.0/mul", "shape": [1, 8, 1, 1], "dtype": "float32"}, {"name": "PartitionedCall/onnx_tf_prefix_p2o.BatchNormalization.0/sub", "shape": [1, 8, 1, 1], "dtype": "float32"}, {"name": "PartitionedCall/add/y", "shape": [], "dtype": "float32"}, {"name": "PartitionedCall/transpose_4/perm", "shape": [4], "dtype": "int32"}, {"name": "PartitionedCall/split_1", "shape": [1, 1, 8, 8], "dtype": "float32"}, {"name": "PartitionedCall/transpose_5/perm", "shape": [4], "dtype": "int32"}, {"name": "PartitionedCall/onnx_tf_prefix_p2o.BatchNormalization.1/mul", "shape": [1, 8, 1, 1], "dtype": "float32"}, {"name": "PartitionedCall/onnx_tf_prefix_p2o.BatchNormalization.1/sub", "shape": [1, 8, 1, 1], "dtype": "float32"}, {"name": "PartitionedCall/Const_3", "shape": [4, 2], "dtype": "int32"}, {"name": "PartitionedCall/transpose_7/perm", "shape": [4], "dtype": "int32"}, {"name": "PartitionedCall/Reshape_8", "shape": [3, 3, 8, 1], "dtype": "float32"}, {"name": "PartitionedCall/transpose_8/perm", "shape": [4], "dtype": "int32"}, {"name": "PartitionedCall/onnx_tf_prefix_p2o.BatchNormalization.2/mul", "shape": [1, 8, 1, 1], "dtype": "float32"}, {"name": "PartitionedCall/onnx_tf_prefix_p2o.BatchNormalization.2/sub", "shape": [1, 8, 1, 1], "dtype": "float32"}, {"name": "PartitionedCall/transpose_10/perm", "shape": [4], "dtype": "int32"}, {"name": "PartitionedCall/split_2", "shape": [1, 1, 8, 8], "dtype": "float32"}, {"name": "PartitionedCall/transpose_11/perm", "shape": [4], "dtype": "int32"}, {"name": "PartitionedCall/onnx_tf_prefix_p2o.BatchNormalization.3/mul", "shape": [1, 8, 1, 1], "dtype": "float32"}, {"name": "PartitionedCall/onnx_tf_prefix_p2o.BatchNormalization.3/sub", "shape": [1, 8, 1, 1], "dtype": "float32"}, {"name": "PartitionedCall/transpose_13/perm", "shape": [4], "dtype": "int32"}, {"name": "PartitionedCall/split_3", "shape": [1, 1, 8, 32], "dtype": "float32"}, {"name": "PartitionedCall/transpose_14/perm", "shape": [4], "dtype": "int32"}, {"name": "PartitionedCall/onnx_tf_prefix_p2o.BatchNormalization.4/mul", "shape": [1, 32, 1, 1], "dtype": "float32"}, {"name": "PartitionedCall/onnx_tf_prefix_p2o.BatchNormalization.4/sub", "shape": [1, 32, 1, 1], "dtype": "float32"}, {"name": "PartitionedCall/Const_4", "shape": [4, 2], "dtype": "int32"}, {"name": "PartitionedCall/transpose_16/perm", "shape": [4], "dtype": "int32"}, {"name": "PartitionedCall/Reshape_21", "shape": [3, 3, 32, 1], "dtype": "float32"}, {"name": "PartitionedCall/transpose_17/perm", "shape": [4], "dtype": "int32"}, {"name": "PartitionedCall/onnx_tf_prefix_p2o.BatchNormalization.5/mul", "shape": [1, 32, 1, 1], "dtype": "float32"}, {"name": "PartitionedCall/onnx_tf_prefix_p2o.BatchNormalization.5/sub", "shape": [1, 32, 1, 1], "dtype": "float32"}, {"name": "PartitionedCall/transpose_19/perm", "shape": [4], "dtype": "int32"}, {"name": "PartitionedCall/split_4", "shape": [1, 1, 32, 16], "dtype": "float32"}, {"name": "PartitionedCall/transpose_20/perm", "shape": [4], "dtype": "int32"}, {"name": "PartitionedCall/onnx_tf_prefix_p2o.BatchNormalization.6/mul", "shape": [1, 16, 1, 1], "dtype": "float32"}, {"name": "PartitionedCall/onnx_tf_prefix_p2o.BatchNormalization.6/sub", "shape": [1, 16, 1, 1], "dtype": "float32"}, {"name": "PartitionedCall/transpose_22/perm", "shape": [4], "dtype": "int32"}, {"name": "PartitionedCall/split_5", "shape": [1, 1, 16, 40], "dtype": "float32"}, {"name": "PartitionedCall/transpose_23/perm", "shape": [4], "dtype": "int32"}, {"name": "PartitionedCall/onnx_tf_prefix_p2o.BatchNormalization.7/mul", "shape": [1, 40, 1, 1], "dtype": "float32"}, {"name": "PartitionedCall/onnx_tf_prefix_p2o.BatchNormalization.7/sub", "shape": [1, 40, 1, 1], "dtype": "float32"}, {"name": "PartitionedCall/Const_5", "shape": [4, 2], "dtype": "int32"}, {"name": "PartitionedCall/transpose_25/perm", "shape": [4], "dtype": "int32"}, {"name": "PartitionedCall/Reshape_34", "shape": [3, 3, 40, 1], "dtype": "float32"}, {"name": "PartitionedCall/transpose_26/perm", "shape": [4], "dtype": "int32"}, {"name": "PartitionedCall/onnx_tf_prefix_p2o.BatchNormalization.8/mul", "shape": [1, 40, 1, 1], "dtype": "float32"}, {"name": "PartitionedCall/onnx_tf_prefix_p2o.BatchNormalization.8/sub", "shape": [1, 40, 1, 1], "dtype": "float32"}, {"name": "PartitionedCall/transpose_28/perm", "shape": [4], "dtype": "int32"}, {"name": "PartitionedCall/split_6", "shape": [1, 1, 40, 16], "dtype": "float32"}, {"name": "PartitionedCall/transpose_29/perm", "shape": [4], "dtype": "int32"}, {"name": "PartitionedCall/onnx_tf_prefix_p2o.BatchNormalization.9/mul", "shape": [1, 16, 1, 1], "dtype": "float32"}, {"name": "PartitionedCall/onnx_tf_prefix_p2o.BatchNormalization.9/sub", "shape": [1, 16, 1, 1], "dtype": "float32"}, {"name": "PartitionedCall/transpose_31/perm", "shape": [4], "dtype": "int32"}, {"name": "PartitionedCall/split_7", "shape": [1, 1, 16, 40], "dtype": "float32"}, {"name": "PartitionedCall/transpose_32/perm", "shape": [4], "dtype": "int32"}, {"name": "PartitionedCall/onnx_tf_prefix_p2o.BatchNormalization.10/mul", "shape": [1, 40, 1, 1], "dtype": "float32"}, {"name": "PartitionedCall/onnx_tf_prefix_p2o.BatchNormalization.10/sub", "shape": [1, 40, 1, 1], "dtype": "float32"}, {"name": "PartitionedCall/Const_6", "shape": [4, 2], "dtype": "int32"}, {"name": "PartitionedCall/transpose_40/perm", "shape": [4], "dtype": "int32"}, {"name": "PartitionedCall/Reshape_47", "shape": [5, 5, 40, 1], "dtype": "float32"}, {"name": "PartitionedCall/transpose_41/perm", "shape": [4], "dtype": "int32"}, {"name": "PartitionedCall/onnx_tf_prefix_p2o.BatchNormalization.11/mul", "shape": [1, 40, 1, 1], "dtype": "float32"}, {"name": "PartitionedCall/onnx_tf_prefix_p2o.BatchNormalization.11/sub", "shape": [1, 40, 1, 1], "dtype": "float32"}, {"name": "PartitionedCall/transpose_46/perm", "shape": [4], "dtype": "int32"}, {"name": "PartitionedCall/split_12", "shape": [1, 1, 40, 24], "dtype": "float32"}, {"name": "PartitionedCall/transpose_47/perm", "shape": [4], "dtype": "int32"}, {"name": "PartitionedCall/onnx_tf_prefix_p2o.BatchNormalization.12/mul", "shape": [1, 24, 1, 1], "dtype": "float32"}, {"name": "PartitionedCall/onnx_tf_prefix_p2o.BatchNormalization.12/sub", "shape": [1, 24, 1, 1], "dtype": "float32"}, {"name": "PartitionedCall/transpose_49/perm", "shape": [4], "dtype": "int32"}, {"name": "PartitionedCall/split_13", "shape": [1, 1, 24, 64], "dtype": "float32"}, {"name": "PartitionedCall/transpose_50/perm", "shape": [4], "dtype": "int32"}, {"name": "PartitionedCall/onnx_tf_prefix_p2o.BatchNormalization.13/mul", "shape": [1, 64, 1, 1], "dtype": "float32"}, {"name": "PartitionedCall/onnx_tf_prefix_p2o.BatchNormalization.13/sub", "shape": [1, 64, 1, 1], "dtype": "float32"}, {"name": "PartitionedCall/Const_7", "shape": [4, 2], "dtype": "int32"}, {"name": "PartitionedCall/transpose_52/perm", "shape": [4], "dtype": "int32"}, {"name": "PartitionedCall/Reshape_60", "shape": [5, 5, 64, 1], "dtype": "float32"}, {"name": "PartitionedCall/transpose_53/perm", "shape": [4], "dtype": "int32"}, {"name": "PartitionedCall/onnx_tf_prefix_p2o.BatchNormalization.14/mul", "shape": [1, 64, 1, 1], "dtype": "float32"}, {"name": "PartitionedCall/onnx_tf_prefix_p2o.BatchNormalization.14/sub", "shape": [1, 64, 1, 1], "dtype": "float32"}, {"name": "PartitionedCall/transpose_55/perm", "shape": [4], "dtype": "int32"}, {"name": "PartitionedCall/split_14", "shape": [1, 1, 64, 24], "dtype": "float32"}, {"name": "PartitionedCall/transpose_56/perm", "shape": [4], "dtype": "int32"}, {"name": "PartitionedCall/onnx_tf_prefix_p2o.BatchNormalization.15/mul", "shape": [1, 24, 1, 1], "dtype": "float32"}, {"name": "PartitionedCall/onnx_tf_prefix_p2o.BatchNormalization.15/sub", "shape": [1, 24, 1, 1], "dtype": "float32"}, {"name": "PartitionedCall/transpose_58/perm", "shape": [4], "dtype": "int32"}, {"name": "PartitionedCall/split_15", "shape": [1, 1, 24, 64], "dtype": "float32"}, {"name": "PartitionedCall/transpose_59/perm", "shape": [4], "dtype": "int32"}, {"name": "PartitionedCall/onnx_tf_prefix_p2o.BatchNormalization.16/mul", "shape": [1, 64, 1, 1], "dtype": "float32"}, {"name": "PartitionedCall/onnx_tf_prefix_p2o.BatchNormalization.16/sub", "shape": [1, 64, 1, 1], "dtype": "float32"}, {"name": "PartitionedCall/Const_8", "shape": [4, 2], "dtype": "int32"}, {"name": "PartitionedCall/transpose_61/perm", "shape": [4], "dtype": "int32"}, {"name": "PartitionedCall/Reshape_73", "shape": [5, 5, 64, 1], "dtype": "float32"}, {"name": "PartitionedCall/transpose_62/perm", "shape": [4], "dtype": "int32"}, {"name": "PartitionedCall/onnx_tf_prefix_p2o.BatchNormalization.17/mul", "shape": [1, 64, 1, 1], "dtype": "float32"}, {"name": "PartitionedCall/onnx_tf_prefix_p2o.BatchNormalization.17/sub", "shape": [1, 64, 1, 1], "dtype": "float32"}, {"name": "PartitionedCall/transpose_64/perm", "shape": [4], "dtype": "int32"}, {"name": "PartitionedCall/split_16", "shape": [1, 1, 64, 24], "dtype": "float32"}, {"name": "PartitionedCall/transpose_65/perm", "shape": [4], "dtype": "int32"}, {"name": "PartitionedCall/onnx_tf_prefix_p2o.BatchNormalization.18/mul", "shape": [1, 24, 1, 1], "dtype": "float32"}, {"name": "PartitionedCall/onnx_tf_prefix_p2o.BatchNormalization.18/sub", "shape": [1, 24, 1, 1], "dtype": "float32"}, {"name": "PartitionedCall/transpose_67/perm", "shape": [4], "dtype": "int32"}, {"name": "PartitionedCall/split_17", "shape": [1, 1, 24, 120], "dtype": "float32"}, {"name": "PartitionedCall/transpose_68/perm", "shape": [4], "dtype": "int32"}, {"name": "PartitionedCall/onnx_tf_prefix_p2o.BatchNormalization.19/mul", "shape": [1, 120, 1, 1], "dtype": "float32"}, {"name": "PartitionedCall/onnx_tf_prefix_p2o.BatchNormalization.19/sub", "shape": [1, 120, 1, 1], "dtype": "float32"}, {"name": "PartitionedCall/add_4/y", "shape": [], "dtype": "float32"}, {"name": "PartitionedCall/Const_11", "shape": [4, 2], "dtype": "int32"}, {"name": "PartitionedCall/transpose_76/perm", "shape": [4], "dtype": "int32"}, {"name": "PartitionedCall/Reshape_86", "shape": [3, 3, 120, 1], "dtype": "float32"}, {"name": "PartitionedCall/transpose_77/perm", "shape": [4], "dtype": "int32"}, {"name": "PartitionedCall/onnx_tf_prefix_p2o.BatchNormalization.20/mul", "shape": [1, 120, 1, 1], "dtype": "float32"}, {"name": "PartitionedCall/onnx_tf_prefix_p2o.BatchNormalization.20/sub", "shape": [1, 120, 1, 1], "dtype": "float32"}, {"name": "PartitionedCall/add_7/y", "shape": [], "dtype": "float32"}, {"name": "PartitionedCall/transpose_82/perm", "shape": [4], "dtype": "int32"}, {"name": "PartitionedCall/split_22", "shape": [1, 1, 120, 40], "dtype": "float32"}, {"name": "PartitionedCall/transpose_83/perm", "shape": [4], "dtype": "int32"}, {"name": "PartitionedCall/onnx_tf_prefix_p2o.BatchNormalization.21/mul", "shape": [1, 40, 1, 1], "dtype": "float32"}, {"name": "PartitionedCall/onnx_tf_prefix_p2o.BatchNormalization.21/sub", "shape": [1, 40, 1, 1], "dtype": "float32"}, {"name": "PartitionedCall/transpose_85/perm", "shape": [4], "dtype": "int32"}, {"name": "PartitionedCall/split_23", "shape": [1, 1, 40, 104], "dtype": "float32"}, {"name": "PartitionedCall/transpose_86/perm", "shape": [4], "dtype": "int32"}, {"name": "PartitionedCall/onnx_tf_prefix_p2o.BatchNormalization.22/mul", "shape": [1, 104, 1, 1], "dtype": "float32"}, {"name": "PartitionedCall/onnx_tf_prefix_p2o.BatchNormalization.22/sub", "shape": [1, 104, 1, 1], "dtype": "float32"}, {"name": "PartitionedCall/add_9/y", "shape": [], "dtype": "float32"}, {"name": "PartitionedCall/Const_16", "shape": [4, 2], "dtype": "int32"}, {"name": "PartitionedCall/transpose_88/perm", "shape": [4], "dtype": "int32"}, {"name": "PartitionedCall/Reshape_99", "shape": [3, 3, 104, 1], "dtype": "float32"}, {"name": "PartitionedCall/transpose_89/perm", "shape": [4], "dtype": "int32"}, {"name": "PartitionedCall/onnx_tf_prefix_p2o.BatchNormalization.23/mul", "shape": [1, 104, 1, 1], "dtype": "float32"}, {"name": "PartitionedCall/onnx_tf_prefix_p2o.BatchNormalization.23/sub", "shape": [1, 104, 1, 1], "dtype": "float32"}, {"name": "PartitionedCall/add_10/y", "shape": [], "dtype": "float32"}, {"name": "PartitionedCall/transpose_91/perm", "shape": [4], "dtype": "int32"}, {"name": "PartitionedCall/split_24", "shape": [1, 1, 104, 40], "dtype": "float32"}, {"name": "PartitionedCall/transpose_92/perm", "shape": [4], "dtype": "int32"}, {"name": "PartitionedCall/onnx_tf_prefix_p2o.BatchNormalization.24/mul", "shape": [1, 40, 1, 1], "dtype": "float32"}, {"name": "PartitionedCall/onnx_tf_prefix_p2o.BatchNormalization.24/sub", "shape": [1, 40, 1, 1], "dtype": "float32"}, {"name": "PartitionedCall/transpose_94/perm", "shape": [4], "dtype": "int32"}, {"name": "PartitionedCall/split_25", "shape": [1, 1, 40, 96], "dtype": "float32"}, {"name": "PartitionedCall/transpose_95/perm", "shape": [4], "dtype": "int32"}, {"name": "PartitionedCall/onnx_tf_prefix_p2o.BatchNormalization.25/mul", "shape": [1, 96, 1, 1], "dtype": "float32"}, {"name": "PartitionedCall/onnx_tf_prefix_p2o.BatchNormalization.25/sub", "shape": [1, 96, 1, 1], "dtype": "float32"}, {"name": "PartitionedCall/add_11/y", "shape": [], "dtype": "float32"}, {"name": "PartitionedCall/Const_21", "shape": [4, 2], "dtype": "int32"}, {"name": "PartitionedCall/transpose_97/perm", "shape": [4], "dtype": "int32"}, {"name": "PartitionedCall/Reshape_112", "shape": [3, 3, 96, 1], "dtype": "float32"}, {"name": "PartitionedCall/transpose_98/perm", "shape": [4], "dtype": "int32"}, {"name": "PartitionedCall/onnx_tf_prefix_p2o.BatchNormalization.26/mul", "shape": [1, 96, 1, 1], "dtype": "float32"}, {"name": "PartitionedCall/onnx_tf_prefix_p2o.BatchNormalization.26/sub", "shape": [1, 96, 1, 1], "dtype": "float32"}, {"name": "PartitionedCall/add_12/y", "shape": [], "dtype": "float32"}, {"name": "PartitionedCall/transpose_100/perm", "shape": [4], "dtype": "int32"}, {"name": "PartitionedCall/split_26", "shape": [1, 1, 96, 40], "dtype": "float32"}, {"name": "PartitionedCall/transpose_101/perm", "shape": [4], "dtype": "int32"}, {"name": "PartitionedCall/onnx_tf_prefix_p2o.BatchNormalization.27/mul", "shape": [1, 40, 1, 1], "dtype": "float32"}, {"name": "PartitionedCall/onnx_tf_prefix_p2o.BatchNormalization.27/sub", "shape": [1, 40, 1, 1], "dtype": "float32"}, {"name": "PartitionedCall/transpose_103/perm", "shape": [4], "dtype": "int32"}, {"name": "PartitionedCall/split_27", "shape": [1, 1, 40, 96], "dtype": "float32"}, {"name": "PartitionedCall/transpose_104/perm", "shape": [4], "dtype": "int32"}, {"name": "PartitionedCall/onnx_tf_prefix_p2o.BatchNormalization.28/mul", "shape": [1, 96, 1, 1], "dtype": "float32"}, {"name": "PartitionedCall/onnx_tf_prefix_p2o.BatchNormalization.28/sub", "shape": [1, 96, 1, 1], "dtype": "float32"}, {"name": "PartitionedCall/add_13/y", "shape": [], "dtype": "float32"}, {"name": "PartitionedCall/Const_26", "shape": [4, 2], "dtype": "int32"}, {"name": "PartitionedCall/transpose_106/perm", "shape": [4], "dtype": "int32"}, {"name": "PartitionedCall/Reshape_125", "shape": [3, 3, 96, 1], "dtype": "float32"}, {"name": "PartitionedCall/transpose_107/perm", "shape": [4], "dtype": "int32"}, {"name": "PartitionedCall/onnx_tf_prefix_p2o.BatchNormalization.29/mul", "shape": [1, 96, 1, 1], "dtype": "float32"}, {"name": "PartitionedCall/onnx_tf_prefix_p2o.BatchNormalization.29/sub", "shape": [1, 96, 1, 1], "dtype": "float32"}, {"name": "PartitionedCall/add_14/y", "shape": [], "dtype": "float32"}, {"name": "PartitionedCall/transpose_109/perm", "shape": [4], "dtype": "int32"}, {"name": "PartitionedCall/split_28", "shape": [1, 1, 96, 40], "dtype": "float32"}, {"name": "PartitionedCall/transpose_110/perm", "shape": [4], "dtype": "int32"}, {"name": "PartitionedCall/onnx_tf_prefix_p2o.BatchNormalization.30/mul", "shape": [1, 40, 1, 1], "dtype": "float32"}, {"name": "PartitionedCall/onnx_tf_prefix_p2o.BatchNormalization.30/sub", "shape": [1, 40, 1, 1], "dtype": "float32"}, {"name": "PartitionedCall/transpose_112/perm", "shape": [4], "dtype": "int32"}, {"name": "PartitionedCall/split_29", "shape": [1, 1, 40, 240], "dtype": "float32"}, {"name": "PartitionedCall/transpose_113/perm", "shape": [4], "dtype": "int32"}, {"name": "PartitionedCall/onnx_tf_prefix_p2o.BatchNormalization.31/mul", "shape": [1, 240, 1, 1], "dtype": "float32"}, {"name": "PartitionedCall/onnx_tf_prefix_p2o.BatchNormalization.31/sub", "shape": [1, 240, 1, 1], "dtype": "float32"}, {"name": "PartitionedCall/add_15/y", "shape": [], "dtype": "float32"}, {"name": "PartitionedCall/Const_31", "shape": [4, 2], "dtype": "int32"}, {"name": "PartitionedCall/transpose_115/perm", "shape": [4], "dtype": "int32"}, {"name": "PartitionedCall/Reshape_138", "shape": [3, 3, 240, 1], "dtype": "float32"}, {"name": "PartitionedCall/transpose_116/perm", "shape": [4], "dtype": "int32"}, {"name": "PartitionedCall/onnx_tf_prefix_p2o.BatchNormalization.32/mul", "shape": [1, 240, 1, 1], "dtype": "float32"}, {"name": "PartitionedCall/onnx_tf_prefix_p2o.BatchNormalization.32/sub", "shape": [1, 240, 1, 1], "dtype": "float32"}, {"name": "PartitionedCall/add_16/y", "shape": [], "dtype": "float32"}, {"name": "PartitionedCall/transpose_118/perm", "shape": [4], "dtype": "int32"}, {"name": "PartitionedCall/split_30", "shape": [1, 1, 240, 56], "dtype": "float32"}, {"name": "PartitionedCall/transpose_119/perm", "shape": [4], "dtype": "int32"}, {"name": "PartitionedCall/onnx_tf_prefix_p2o.BatchNormalization.33/mul", "shape": [1, 56, 1, 1], "dtype": "float32"}, {"name": "PartitionedCall/onnx_tf_prefix_p2o.BatchNormalization.33/sub", "shape": [1, 56, 1, 1], "dtype": "float32"}, {"name": "PartitionedCall/transpose_121/perm", "shape": [4], "dtype": "int32"}, {"name": "PartitionedCall/split_31", "shape": [1, 1, 56, 336], "dtype": "float32"}, {"name": "PartitionedCall/transpose_122/perm", "shape": [4], "dtype": "int32"}, {"name": "PartitionedCall/onnx_tf_prefix_p2o.BatchNormalization.34/mul", "shape": [1, 336, 1, 1], "dtype": "float32"}, {"name": "PartitionedCall/onnx_tf_prefix_p2o.BatchNormalization.34/sub", "shape": [1, 336, 1, 1], "dtype": "float32"}, {"name": "PartitionedCall/add_17/y", "shape": [], "dtype": "float32"}, {"name": "PartitionedCall/Const_36", "shape": [4, 2], "dtype": "int32"}, {"name": "PartitionedCall/transpose_124/perm", "shape": [4], "dtype": "int32"}, {"name": "PartitionedCall/Reshape_151", "shape": [3, 3, 336, 1], "dtype": "float32"}, {"name": "PartitionedCall/transpose_125/perm", "shape": [4], "dtype": "int32"}, {"name": "PartitionedCall/onnx_tf_prefix_p2o.BatchNormalization.35/mul", "shape": [1, 336, 1, 1], "dtype": "float32"}, {"name": "PartitionedCall/onnx_tf_prefix_p2o.BatchNormalization.35/sub", "shape": [1, 336, 1, 1], "dtype": "float32"}, {"name": "PartitionedCall/add_18/y", "shape": [], "dtype": "float32"}, {"name": "PartitionedCall/transpose_127/perm", "shape": [4], "dtype": "int32"}, {"name": "PartitionedCall/split_32", "shape": [1, 1, 336, 56], "dtype": "float32"}, {"name": "PartitionedCall/transpose_128/perm", "shape": [4], "dtype": "int32"}, {"name": "PartitionedCall/onnx_tf_prefix_p2o.BatchNormalization.36/mul", "shape": [1, 56, 1, 1], "dtype": "float32"}, {"name": "PartitionedCall/onnx_tf_prefix_p2o.BatchNormalization.36/sub", "shape": [1, 56, 1, 1], "dtype": "float32"}, {"name": "PartitionedCall/transpose_130/perm", "shape": [4], "dtype": "int32"}, {"name": "PartitionedCall/split_33", "shape": [1, 1, 56, 336], "dtype": "float32"}, {"name": "PartitionedCall/transpose_131/perm", "shape": [4], "dtype": "int32"}, {"name": "PartitionedCall/onnx_tf_prefix_p2o.BatchNormalization.37/mul", "shape": [1, 336, 1, 1], "dtype": "float32"}, {"name": "PartitionedCall/onnx_tf_prefix_p2o.BatchNormalization.37/sub", "shape": [1, 336, 1, 1], "dtype": "float32"}, {"name": "PartitionedCall/add_19/y", "shape": [], "dtype": "float32"}, {"name": "PartitionedCall/Const_41", "shape": [4, 2], "dtype": "int32"}, {"name": "PartitionedCall/transpose_139/perm", "shape": [4], "dtype": "int32"}, {"name": "PartitionedCall/Reshape_164", "shape": [5, 5, 336, 1], "dtype": "float32"}, {"name": "PartitionedCall/transpose_140/perm", "shape": [4], "dtype": "int32"}, {"name": "PartitionedCall/onnx_tf_prefix_p2o.BatchNormalization.38/mul", "shape": [1, 336, 1, 1], "dtype": "float32"}, {"name": "PartitionedCall/onnx_tf_prefix_p2o.BatchNormalization.38/sub", "shape": [1, 336, 1, 1], "dtype": "float32"}, {"name": "PartitionedCall/add_22/y", "shape": [], "dtype": "float32"}, {"name": "PartitionedCall/transpose_145/perm", "shape": [4], "dtype": "int32"}, {"name": "PartitionedCall/split_38", "shape": [1, 1, 336, 80], "dtype": "float32"}, {"name": "PartitionedCall/transpose_146/perm", "shape": [4], "dtype": "int32"}, {"name": "PartitionedCall/onnx_tf_prefix_p2o.BatchNormalization.39/mul", "shape": [1, 80, 1, 1], "dtype": "float32"}, {"name": "PartitionedCall/onnx_tf_prefix_p2o.BatchNormalization.39/sub", "shape": [1, 80, 1, 1], "dtype": "float32"}, {"name": "PartitionedCall/transpose_148/perm", "shape": [4], "dtype": "int32"}, {"name": "PartitionedCall/split_39", "shape": [1, 1, 80, 480], "dtype": "float32"}, {"name": "PartitionedCall/transpose_149/perm", "shape": [4], "dtype": "int32"}, {"name": "PartitionedCall/onnx_tf_prefix_p2o.BatchNormalization.40/mul", "shape": [1, 480, 1, 1], "dtype": "float32"}, {"name": "PartitionedCall/onnx_tf_prefix_p2o.BatchNormalization.40/sub", "shape": [1, 480, 1, 1], "dtype": "float32"}, {"name": "PartitionedCall/add_24/y", "shape": [], "dtype": "float32"}, {"name": "PartitionedCall/Const_46", "shape": [4, 2], "dtype": "int32"}, {"name": "PartitionedCall/transpose_151/perm", "shape": [4], "dtype": "int32"}, {"name": "PartitionedCall/Reshape_177", "shape": [5, 5, 480, 1], "dtype": "float32"}, {"name": "PartitionedCall/transpose_152/perm", "shape": [4], "dtype": "int32"}, {"name": "PartitionedCall/onnx_tf_prefix_p2o.BatchNormalization.41/mul", "shape": [1, 480, 1, 1], "dtype": "float32"}, {"name": "PartitionedCall/onnx_tf_prefix_p2o.BatchNormalization.41/sub", "shape": [1, 480, 1, 1], "dtype": "float32"}, {"name": "PartitionedCall/add_25/y", "shape": [], "dtype": "float32"}, {"name": "PartitionedCall/transpose_154/perm", "shape": [4], "dtype": "int32"}, {"name": "PartitionedCall/split_40", "shape": [1, 1, 480, 80], "dtype": "float32"}, {"name": "PartitionedCall/transpose_155/perm", "shape": [4], "dtype": "int32"}, {"name": "PartitionedCall/onnx_tf_prefix_p2o.BatchNormalization.42/mul", "shape": [1, 80, 1, 1], "dtype": "float32"}, {"name": "PartitionedCall/onnx_tf_prefix_p2o.BatchNormalization.42/sub", "shape": [1, 80, 1, 1], "dtype": "float32"}, {"name": "PartitionedCall/transpose_157/perm", "shape": [4], "dtype": "int32"}, {"name": "PartitionedCall/split_41", "shape": [1, 1, 80, 480], "dtype": "float32"}, {"name": "PartitionedCall/transpose_158/perm", "shape": [4], "dtype": "int32"}, {"name": "PartitionedCall/onnx_tf_prefix_p2o.BatchNormalization.43/mul", "shape": [1, 480, 1, 1], "dtype": "float32"}, {"name": "PartitionedCall/onnx_tf_prefix_p2o.BatchNormalization.43/sub", "shape": [1, 480, 1, 1], "dtype": "float32"}, {"name": "PartitionedCall/add_26/y", "shape": [], "dtype": "float32"}, {"name": "PartitionedCall/Const_51", "shape": [4, 2], "dtype": "int32"}, {"name": "PartitionedCall/transpose_160/perm", "shape": [4], "dtype": "int32"}, {"name": "PartitionedCall/Reshape_190", "shape": [5, 5, 480, 1], "dtype": "float32"}, {"name": "PartitionedCall/transpose_161/perm", "shape": [4], "dtype": "int32"}, {"name": "PartitionedCall/onnx_tf_prefix_p2o.BatchNormalization.44/mul", "shape": [1, 480, 1, 1], "dtype": "float32"}, {"name": "PartitionedCall/onnx_tf_prefix_p2o.BatchNormalization.44/sub", "shape": [1, 480, 1, 1], "dtype": "float32"}, {"name": "PartitionedCall/add_27/y", "shape": [], "dtype": "float32"}, {"name": "PartitionedCall/transpose_163/perm", "shape": [4], "dtype": "int32"}, {"name": "PartitionedCall/split_42", "shape": [1, 1, 480, 80], "dtype": "float32"}, {"name": "PartitionedCall/transpose_164/perm", "shape": [4], "dtype": "int32"}, {"name": "PartitionedCall/onnx_tf_prefix_p2o.BatchNormalization.45/mul", "shape": [1, 80, 1, 1], "dtype": "float32"}, {"name": "PartitionedCall/onnx_tf_prefix_p2o.BatchNormalization.45/sub", "shape": [1, 80, 1, 1], "dtype": "float32"}, {"name": "PartitionedCall/transpose_166/perm", "shape": [4], "dtype": "int32"}, {"name": "PartitionedCall/split_43", "shape": [1, 1, 80, 480], "dtype": "float32"}, {"name": "PartitionedCall/transpose_167/perm", "shape": [4], "dtype": "int32"}, {"name": "PartitionedCall/onnx_tf_prefix_p2o.BatchNormalization.46/mul", "shape": [1, 480, 1, 1], "dtype": "float32"}, {"name": "PartitionedCall/onnx_tf_prefix_p2o.BatchNormalization.46/sub", "shape": [1, 480, 1, 1], "dtype": "float32"}, {"name": "PartitionedCall/add_28/y", "shape": [], "dtype": "float32"}, {"name": "PartitionedCall/transpose_169/perm", "shape": [4], "dtype": "int32"}, {"name": "PartitionedCall/split_44", "shape": [1, 1, 480, 96], "dtype": "float32"}, {"name": "PartitionedCall/transpose_170/perm", "shape": [4], "dtype": "int32"}, {"name": "ConstantFolding/PartitionedCall/split_45-folded-1", "shape": [2], "dtype": "int32"}, {"name": "PartitionedCall/transpose_172/perm", "shape": [4], "dtype": "int32"}, {"name": "PartitionedCall/split_46", "shape": [1, 1, 96, 24], "dtype": "float32"}, {"name": "PartitionedCall/onnx_tf_prefix_sng_Constant_271", "shape": [24], "dtype": "float32"}, {"name": "PartitionedCall/transpose_173/perm", "shape": [4], "dtype": "int32"}, {"name": "PartitionedCall/transpose_175/perm", "shape": [4], "dtype": "int32"}, {"name": "PartitionedCall/split_47", "shape": [1, 1, 24, 96], "dtype": "float32"}, {"name": "PartitionedCall/onnx_tf_prefix_sng_Constant_273", "shape": [96], "dtype": "float32"}, {"name": "PartitionedCall/transpose_176/perm", "shape": [4], "dtype": "int32"}, {"name": "PartitionedCall/mul_43/y", "shape": [], "dtype": "float32"}, {"name": "PartitionedCall/add_31/y", "shape": [], "dtype": "float32"}, {"name": "PartitionedCall/clip_by_value_3/Minimum/y", "shape": [], "dtype": "float32"}, {"name": "PartitionedCall/clip_by_value_3/y", "shape": [], "dtype": "float32"}, {"name": "PartitionedCall/strided_slice_1/stack", "shape": [1], "dtype": "int32"}, {"name": "PartitionedCall/strided_slice_1/stack_1", "shape": [1], "dtype": "int32"}, {"name": "PartitionedCall/strided_slice_1/stack_2", "shape": [1], "dtype": "int32"}, {"name": "PartitionedCall/transpose_178/perm", "shape": [4], "dtype": "int32"}, {"name": "PartitionedCall/strided_slice_3/stack", "shape": [1], "dtype": "int32"}, {"name": "PartitionedCall/strided_slice_3/stack_1", "shape": [1], "dtype": "int32"}, {"name": "PartitionedCall/strided_slice_3/stack_2", "shape": [1], "dtype": "int32"}, {"name": "PartitionedCall/transpose_183/perm", "shape": [4], "dtype": "int32"}, {"name": "PartitionedCall/strided_slice_5/stack", "shape": [1], "dtype": "int32"}, {"name": "PartitionedCall/strided_slice_5/stack_1", "shape": [1], "dtype": "int32"}, {"name": "PartitionedCall/strided_slice_5/stack_2", "shape": [1], "dtype": "int32"}, {"name": "PartitionedCall/transpose_191/perm", "shape": [4], "dtype": "int32"}, {"name": "PartitionedCall/Const_62", "shape": [4, 2], "dtype": "int32"}, {"name": "PartitionedCall/transpose_208/perm", "shape": [4], "dtype": "int32"}, {"name": "PartitionedCall/split_59", "shape": [3, 3, 96, 24], "dtype": "float32"}, {"name": "PartitionedCall/transpose_209/perm", "shape": [4], "dtype": "int32"}, {"name": "ConstantFolding/PartitionedCall/split_60-folded-1", "shape": [2], "dtype": "int32"}, {"name": "PartitionedCall/transpose_214/perm", "shape": [4], "dtype": "int32"}, {"name": "PartitionedCall/split_62", "shape": [1, 1, 24, 6], "dtype": "float32"}, {"name": "PartitionedCall/onnx_tf_prefix_sng_Constant_245", "shape": [6], "dtype": "float32"}, {"name": "PartitionedCall/transpose_215/perm", "shape": [4], "dtype": "int32"}, {"name": "PartitionedCall/transpose_219/perm", "shape": [4], "dtype": "int32"}, {"name": "PartitionedCall/split_63", "shape": [1, 1, 6, 24], "dtype": "float32"}, {"name": "PartitionedCall/onnx_tf_prefix_sng_Constant_247", "shape": [24], "dtype": "float32"}, {"name": "PartitionedCall/transpose_220/perm", "shape": [4], "dtype": "int32"}, {"name": "PartitionedCall/mul_52/y", "shape": [], "dtype": "float32"}, {"name": "PartitionedCall/add_43/y", "shape": [], "dtype": "float32"}, {"name": "PartitionedCall/clip_by_value_7/Minimum/y", "shape": [], "dtype": "float32"}, {"name": "PartitionedCall/clip_by_value_7/y", "shape": [], "dtype": "float32"}, {"name": "PartitionedCall/onnx_tf_prefix_p2o.Concat.0/axis", "shape": [], "dtype": "int32"}, {"name": "PartitionedCall/Const_66", "shape": [4, 2], "dtype": "int32"}, {"name": "PartitionedCall/transpose_226/perm", "shape": [4], "dtype": "int32"}, {"name": "PartitionedCall/split_64", "shape": [3, 3, 96, 24], "dtype": "float32"}, {"name": "PartitionedCall/transpose_227/perm", "shape": [4], "dtype": "int32"}, {"name": "PartitionedCall/onnx_tf_prefix_p2o.BatchNormalization.47/mul", "shape": [1, 24, 1, 1], "dtype": "float32"}, {"name": "PartitionedCall/onnx_tf_prefix_p2o.BatchNormalization.47/sub", "shape": [1, 24, 1, 1], "dtype": "float32"}, {"name": "PartitionedCall/transpose_229/perm", "shape": [4], "dtype": "int32"}, {"name": "PartitionedCall/strided_slice_18/stack", "shape": [1], "dtype": "int32"}, {"name": "PartitionedCall/strided_slice_18/stack_1", "shape": [1], "dtype": "int32"}, {"name": "PartitionedCall/strided_slice_18/stack_2", "shape": [1], "dtype": "int32"}, {"name": "PartitionedCall/transpose_230/perm", "shape": [4], "dtype": "int32"}, {"name": "PartitionedCall/onnx_tf_prefix_sng_Constant_284", "shape": [1, 24, 1, 1], "dtype": "float32"}, {"name": "PartitionedCall/onnx_tf_prefix_p2o.BatchNormalization.48/mul", "shape": [1, 24, 1, 1], "dtype": "float32"}, {"name": "PartitionedCall/onnx_tf_prefix_p2o.BatchNormalization.48/sub", "shape": [1, 24, 1, 1], "dtype": "float32"}, {"name": "PartitionedCall/transpose_232/perm", "shape": [4], "dtype": "int32"}, {"name": "PartitionedCall/strided_slice_25/stack", "shape": [1], "dtype": "int32"}, {"name": "PartitionedCall/strided_slice_25/stack_1", "shape": [1], "dtype": "int32"}, {"name": "PartitionedCall/strided_slice_25/stack_2", "shape": [1], "dtype": "int32"}, {"name": "PartitionedCall/transpose_233/perm", "shape": [4], "dtype": "int32"}, {"name": "PartitionedCall/onnx_tf_prefix_sng_Constant_286", "shape": [1, 1, 1, 1], "dtype": "float32"}]}]}